…
21-07-28 17:52:13.751 - INFO: Random seed: 10
21-07-28 17:52:14.817 - INFO: Dataset [LRHR_PKLDataset - CelebA_160_tr] is created.
21-07-28 17:52:14.817 - INFO: Number of train images: 200, iters: 4
21-07-28 17:52:14.817 - INFO: Total epochs needed: 50000 for iters 200,000
21-07-28 17:52:14.954 - INFO: Dataset [LRHR_PKLDataset - CelebA_160_va] is created.
21-07-28 17:52:14.955 - INFO: Number of val images in [CelebA_160_va]: 20
21-07-28 17:52:23.865 - INFO: Network G structure: DataParallel - SRFlowNet, with parameters: 39,541,811
21-07-28 17:52:23.866 - INFO: SRFlowNet(
  (RRDB): RRDBNet(
    (conv_first): Conv2d(3, 64, kernel_size=(3, 3), stride=(1, 1), padding=(1, 1))
    (RRDB_trunk): Sequential(
      (0): RRDB(
        (RDB1): ResidualDenseBlock_5C(
          (conv1): Conv2d(64, 32, kernel_size=(3, 3), stride=(1, 1), padding=(1, 1))
          (conv2): Conv2d(96, 32, kernel_size=(3, 3), stride=(1, 1), padding=(1, 1))
          (conv3): Conv2d(128, 32, kernel_size=(3, 3), stride=(1, 1), padding=(1, 1))
          (conv4): Conv2d(160, 32, kernel_size=(3, 3), stride=(1, 1), padding=(1, 1))
          (conv5): Conv2d(192, 64, kernel_size=(3, 3), stride=(1, 1), padding=(1, 1))
          (lrelu): LeakyReLU(negative_slope=0.2, inplace=True)
        )
        (RDB2): ResidualDenseBlock_5C(
          (conv1): Conv2d(64, 32, kernel_size=(3, 3), stride=(1, 1), padding=(1, 1))
          (conv2): Conv2d(96, 32, kernel_size=(3, 3), stride=(1, 1), padding=(1, 1))
          (conv3): Conv2d(128, 32, kernel_size=(3, 3), stride=(1, 1), padding=(1, 1))
          (conv4): Conv2d(160, 32, kernel_size=(3, 3), stride=(1, 1), padding=(1, 1))
          (conv5): Conv2d(192, 64, kernel_size=(3, 3), stride=(1, 1), padding=(1, 1))
          (lrelu): LeakyReLU(negative_slope=0.2, inplace=True)
        )
        (RDB3): ResidualDenseBlock_5C(
          (conv1): Conv2d(64, 32, kernel_size=(3, 3), stride=(1, 1), padding=(1, 1))
          (conv2): Conv2d(96, 32, kernel_size=(3, 3), stride=(1, 1), padding=(1, 1))
          (conv3): Conv2d(128, 32, kernel_size=(3, 3), stride=(1, 1), padding=(1, 1))
          (conv4): Conv2d(160, 32, kernel_size=(3, 3), stride=(1, 1), padding=(1, 1))
          (conv5): Conv2d(192, 64, kernel_size=(3, 3), stride=(1, 1), padding=(1, 1))
          (lrelu): LeakyReLU(negative_slope=0.2, inplace=True)
        )
      )
      (1): RRDB(
        (RDB1): ResidualDenseBlock_5C(
          (conv1): Conv2d(64, 32, kernel_size=(3, 3), stride=(1, 1), padding=(1, 1))
          (conv2): Conv2d(96, 32, kernel_size=(3, 3), stride=(1, 1), padding=(1, 1))
          (conv3): Conv2d(128, 32, kernel_size=(3, 3), stride=(1, 1), padding=(1, 1))
          (conv4): Conv2d(160, 32, kernel_size=(3, 3), stride=(1, 1), padding=(1, 1))
          (conv5): Conv2d(192, 64, kernel_size=(3, 3), stride=(1, 1), padding=(1, 1))
          (lrelu): LeakyReLU(negative_slope=0.2, inplace=True)
        )
        (RDB2): ResidualDenseBlock_5C(
          (conv1): Conv2d(64, 32, kernel_size=(3, 3), stride=(1, 1), padding=(1, 1))
          (conv2): Conv2d(96, 32, kernel_size=(3, 3), stride=(1, 1), padding=(1, 1))
          (conv3): Conv2d(128, 32, kernel_size=(3, 3), stride=(1, 1), padding=(1, 1))
          (conv4): Conv2d(160, 32, kernel_size=(3, 3), stride=(1, 1), padding=(1, 1))
          (conv5): Conv2d(192, 64, kernel_size=(3, 3), stride=(1, 1), padding=(1, 1))
          (lrelu): LeakyReLU(negative_slope=0.2, inplace=True)
        )
        (RDB3): ResidualDenseBlock_5C(
          (conv1): Conv2d(64, 32, kernel_size=(3, 3), stride=(1, 1), padding=(1, 1))
          (conv2): Conv2d(96, 32, kernel_size=(3, 3), stride=(1, 1), padding=(1, 1))
          (conv3): Conv2d(128, 32, kernel_size=(3, 3), stride=(1, 1), padding=(1, 1))
          (conv4): Conv2d(160, 32, kernel_size=(3, 3), stride=(1, 1), padding=(1, 1))
          (conv5): Conv2d(192, 64, kernel_size=(3, 3), stride=(1, 1), padding=(1, 1))
          (lrelu): LeakyReLU(negative_slope=0.2, inplace=True)
        )
      )
      (2): RRDB(
        (RDB1): ResidualDenseBlock_5C(
          (conv1): Conv2d(64, 32, kernel_size=(3, 3), stride=(1, 1), padding=(1, 1))
          (conv2): Conv2d(96, 32, kernel_size=(3, 3), stride=(1, 1), padding=(1, 1))
          (conv3): Conv2d(128, 32, kernel_size=(3, 3), stride=(1, 1), padding=(1, 1))
          (conv4): Conv2d(160, 32, kernel_size=(3, 3), stride=(1, 1), padding=(1, 1))
          (conv5): Conv2d(192, 64, kernel_size=(3, 3), stride=(1, 1), padding=(1, 1))
          (lrelu): LeakyReLU(negative_slope=0.2, inplace=True)
        )
        (RDB2): ResidualDenseBlock_5C(
          (conv1): Conv2d(64, 32, kernel_size=(3, 3), stride=(1, 1), padding=(1, 1))
          (conv2): Conv2d(96, 32, kernel_size=(3, 3), stride=(1, 1), padding=(1, 1))
          (conv3): Conv2d(128, 32, kernel_size=(3, 3), stride=(1, 1), padding=(1, 1))
          (conv4): Conv2d(160, 32, kernel_size=(3, 3), stride=(1, 1), padding=(1, 1))
          (conv5): Conv2d(192, 64, kernel_size=(3, 3), stride=(1, 1), padding=(1, 1))
          (lrelu): LeakyReLU(negative_slope=0.2, inplace=True)
        )
        (RDB3): ResidualDenseBlock_5C(
          (conv1): Conv2d(64, 32, kernel_size=(3, 3), stride=(1, 1), padding=(1, 1))
          (conv2): Conv2d(96, 32, kernel_size=(3, 3), stride=(1, 1), padding=(1, 1))
          (conv3): Conv2d(128, 32, kernel_size=(3, 3), stride=(1, 1), padding=(1, 1))
          (conv4): Conv2d(160, 32, kernel_size=(3, 3), stride=(1, 1), padding=(1, 1))
          (conv5): Conv2d(192, 64, kernel_size=(3, 3), stride=(1, 1), padding=(1, 1))
          (lrelu): LeakyReLU(negative_slope=0.2, inplace=True)
        )
      )
      (3): RRDB(
        (RDB1): ResidualDenseBlock_5C(
          (conv1): Conv2d(64, 32, kernel_size=(3, 3), stride=(1, 1), padding=(1, 1))
          (conv2): Conv2d(96, 32, kernel_size=(3, 3), stride=(1, 1), padding=(1, 1))
          (conv3): Conv2d(128, 32, kernel_size=(3, 3), stride=(1, 1), padding=(1, 1))
          (conv4): Conv2d(160, 32, kernel_size=(3, 3), stride=(1, 1), padding=(1, 1))
          (conv5): Conv2d(192, 64, kernel_size=(3, 3), stride=(1, 1), padding=(1, 1))
          (lrelu): LeakyReLU(negative_slope=0.2, inplace=True)
        )
        (RDB2): ResidualDenseBlock_5C(
          (conv1): Conv2d(64, 32, kernel_size=(3, 3), stride=(1, 1), padding=(1, 1))
          (conv2): Conv2d(96, 32, kernel_size=(3, 3), stride=(1, 1), padding=(1, 1))
          (conv3): Conv2d(128, 32, kernel_size=(3, 3), stride=(1, 1), padding=(1, 1))
          (conv4): Conv2d(160, 32, kernel_size=(3, 3), stride=(1, 1), padding=(1, 1))
          (conv5): Conv2d(192, 64, kernel_size=(3, 3), stride=(1, 1), padding=(1, 1))
          (lrelu): LeakyReLU(negative_slope=0.2, inplace=True)
        )
        (RDB3): ResidualDenseBlock_5C(
          (conv1): Conv2d(64, 32, kernel_size=(3, 3), stride=(1, 1), padding=(1, 1))
          (conv2): Conv2d(96, 32, kernel_size=(3, 3), stride=(1, 1), padding=(1, 1))
          (conv3): Conv2d(128, 32, kernel_size=(3, 3), stride=(1, 1), padding=(1, 1))
          (conv4): Conv2d(160, 32, kernel_size=(3, 3), stride=(1, 1), padding=(1, 1))
          (conv5): Conv2d(192, 64, kernel_size=(3, 3), stride=(1, 1), padding=(1, 1))
          (lrelu): LeakyReLU(negative_slope=0.2, inplace=True)
        )
      )
      (4): RRDB(
        (RDB1): ResidualDenseBlock_5C(
          (conv1): Conv2d(64, 32, kernel_size=(3, 3), stride=(1, 1), padding=(1, 1))
          (conv2): Conv2d(96, 32, kernel_size=(3, 3), stride=(1, 1), padding=(1, 1))
          (conv3): Conv2d(128, 32, kernel_size=(3, 3), stride=(1, 1), padding=(1, 1))
          (conv4): Conv2d(160, 32, kernel_size=(3, 3), stride=(1, 1), padding=(1, 1))
          (conv5): Conv2d(192, 64, kernel_size=(3, 3), stride=(1, 1), padding=(1, 1))
          (lrelu): LeakyReLU(negative_slope=0.2, inplace=True)
        )
        (RDB2): ResidualDenseBlock_5C(
          (conv1): Conv2d(64, 32, kernel_size=(3, 3), stride=(1, 1), padding=(1, 1))
          (conv2): Conv2d(96, 32, kernel_size=(3, 3), stride=(1, 1), padding=(1, 1))
          (conv3): Conv2d(128, 32, kernel_size=(3, 3), stride=(1, 1), padding=(1, 1))
          (conv4): Conv2d(160, 32, kernel_size=(3, 3), stride=(1, 1), padding=(1, 1))
          (conv5): Conv2d(192, 64, kernel_size=(3, 3), stride=(1, 1), padding=(1, 1))
          (lrelu): LeakyReLU(negative_slope=0.2, inplace=True)
        )
        (RDB3): ResidualDenseBlock_5C(
          (conv1): Conv2d(64, 32, kernel_size=(3, 3), stride=(1, 1), padding=(1, 1))
          (conv2): Conv2d(96, 32, kernel_size=(3, 3), stride=(1, 1), padding=(1, 1))
          (conv3): Conv2d(128, 32, kernel_size=(3, 3), stride=(1, 1), padding=(1, 1))
          (conv4): Conv2d(160, 32, kernel_size=(3, 3), stride=(1, 1), padding=(1, 1))
          (conv5): Conv2d(192, 64, kernel_size=(3, 3), stride=(1, 1), padding=(1, 1))
          (lrelu): LeakyReLU(negative_slope=0.2, inplace=True)
        )
      )
      (5): RRDB(
        (RDB1): ResidualDenseBlock_5C(
          (conv1): Conv2d(64, 32, kernel_size=(3, 3), stride=(1, 1), padding=(1, 1))
          (conv2): Conv2d(96, 32, kernel_size=(3, 3), stride=(1, 1), padding=(1, 1))
          (conv3): Conv2d(128, 32, kernel_size=(3, 3), stride=(1, 1), padding=(1, 1))
          (conv4): Conv2d(160, 32, kernel_size=(3, 3), stride=(1, 1), padding=(1, 1))
          (conv5): Conv2d(192, 64, kernel_size=(3, 3), stride=(1, 1), padding=(1, 1))
          (lrelu): LeakyReLU(negative_slope=0.2, inplace=True)
        )
        (RDB2): ResidualDenseBlock_5C(
          (conv1): Conv2d(64, 32, kernel_size=(3, 3), stride=(1, 1), padding=(1, 1))
          (conv2): Conv2d(96, 32, kernel_size=(3, 3), stride=(1, 1), padding=(1, 1))
          (conv3): Conv2d(128, 32, kernel_size=(3, 3), stride=(1, 1), padding=(1, 1))
          (conv4): Conv2d(160, 32, kernel_size=(3, 3), stride=(1, 1), padding=(1, 1))
          (conv5): Conv2d(192, 64, kernel_size=(3, 3), stride=(1, 1), padding=(1, 1))
          (lrelu): LeakyReLU(negative_slope=0.2, inplace=True)
        )
        (RDB3): ResidualDenseBlock_5C(
          (conv1): Conv2d(64, 32, kernel_size=(3, 3), stride=(1, 1), padding=(1, 1))
          (conv2): Conv2d(96, 32, kernel_size=(3, 3), stride=(1, 1), padding=(1, 1))
          (conv3): Conv2d(128, 32, kernel_size=(3, 3), stride=(1, 1), padding=(1, 1))
          (conv4): Conv2d(160, 32, kernel_size=(3, 3), stride=(1, 1), padding=(1, 1))
          (conv5): Conv2d(192, 64, kernel_size=(3, 3), stride=(1, 1), padding=(1, 1))
          (lrelu): LeakyReLU(negative_slope=0.2, inplace=True)
        )
      )
      (6): RRDB(
        (RDB1): ResidualDenseBlock_5C(
          (conv1): Conv2d(64, 32, kernel_size=(3, 3), stride=(1, 1), padding=(1, 1))
          (conv2): Conv2d(96, 32, kernel_size=(3, 3), stride=(1, 1), padding=(1, 1))
          (conv3): Conv2d(128, 32, kernel_size=(3, 3), stride=(1, 1), padding=(1, 1))
          (conv4): Conv2d(160, 32, kernel_size=(3, 3), stride=(1, 1), padding=(1, 1))
          (conv5): Conv2d(192, 64, kernel_size=(3, 3), stride=(1, 1), padding=(1, 1))
          (lrelu): LeakyReLU(negative_slope=0.2, inplace=True)
        )
        (RDB2): ResidualDenseBlock_5C(
          (conv1): Conv2d(64, 32, kernel_size=(3, 3), stride=(1, 1), padding=(1, 1))
          (conv2): Conv2d(96, 32, kernel_size=(3, 3), stride=(1, 1), padding=(1, 1))
          (conv3): Conv2d(128, 32, kernel_size=(3, 3), stride=(1, 1), padding=(1, 1))
          (conv4): Conv2d(160, 32, kernel_size=(3, 3), stride=(1, 1), padding=(1, 1))
          (conv5): Conv2d(192, 64, kernel_size=(3, 3), stride=(1, 1), padding=(1, 1))
          (lrelu): LeakyReLU(negative_slope=0.2, inplace=True)
        )
        (RDB3): ResidualDenseBlock_5C(
          (conv1): Conv2d(64, 32, kernel_size=(3, 3), stride=(1, 1), padding=(1, 1))
          (conv2): Conv2d(96, 32, kernel_size=(3, 3), stride=(1, 1), padding=(1, 1))
          (conv3): Conv2d(128, 32, kernel_size=(3, 3), stride=(1, 1), padding=(1, 1))
          (conv4): Conv2d(160, 32, kernel_size=(3, 3), stride=(1, 1), padding=(1, 1))
          (conv5): Conv2d(192, 64, kernel_size=(3, 3), stride=(1, 1), padding=(1, 1))
          (lrelu): LeakyReLU(negative_slope=0.2, inplace=True)
        )
      )
      (7): RRDB(
        (RDB1): ResidualDenseBlock_5C(
          (conv1): Conv2d(64, 32, kernel_size=(3, 3), stride=(1, 1), padding=(1, 1))
          (conv2): Conv2d(96, 32, kernel_size=(3, 3), stride=(1, 1), padding=(1, 1))
          (conv3): Conv2d(128, 32, kernel_size=(3, 3), stride=(1, 1), padding=(1, 1))
          (conv4): Conv2d(160, 32, kernel_size=(3, 3), stride=(1, 1), padding=(1, 1))
          (conv5): Conv2d(192, 64, kernel_size=(3, 3), stride=(1, 1), padding=(1, 1))
          (lrelu): LeakyReLU(negative_slope=0.2, inplace=True)
        )
        (RDB2): ResidualDenseBlock_5C(
          (conv1): Conv2d(64, 32, kernel_size=(3, 3), stride=(1, 1), padding=(1, 1))
          (conv2): Conv2d(96, 32, kernel_size=(3, 3), stride=(1, 1), padding=(1, 1))
          (conv3): Conv2d(128, 32, kernel_size=(3, 3), stride=(1, 1), padding=(1, 1))
          (conv4): Conv2d(160, 32, kernel_size=(3, 3), stride=(1, 1), padding=(1, 1))
          (conv5): Conv2d(192, 64, kernel_size=(3, 3), stride=(1, 1), padding=(1, 1))
          (lrelu): LeakyReLU(negative_slope=0.2, inplace=True)
        )
        (RDB3): ResidualDenseBlock_5C(
          (conv1): Conv2d(64, 32, kernel_size=(3, 3), stride=(1, 1), padding=(1, 1))
          (conv2): Conv2d(96, 32, kernel_size=(3, 3), stride=(1, 1), padding=(1, 1))
          (conv3): Conv2d(128, 32, kernel_size=(3, 3), stride=(1, 1), padding=(1, 1))
          (conv4): Conv2d(160, 32, kernel_size=(3, 3), stride=(1, 1), padding=(1, 1))
          (conv5): Conv2d(192, 64, kernel_size=(3, 3), stride=(1, 1), padding=(1, 1))
          (lrelu): LeakyReLU(negative_slope=0.2, inplace=True)
        )
      )
      (8): RRDB(
        (RDB1): ResidualDenseBlock_5C(
          (conv1): Conv2d(64, 32, kernel_size=(3, 3), stride=(1, 1), padding=(1, 1))
          (conv2): Conv2d(96, 32, kernel_size=(3, 3), stride=(1, 1), padding=(1, 1))
          (conv3): Conv2d(128, 32, kernel_size=(3, 3), stride=(1, 1), padding=(1, 1))
          (conv4): Conv2d(160, 32, kernel_size=(3, 3), stride=(1, 1), padding=(1, 1))
          (conv5): Conv2d(192, 64, kernel_size=(3, 3), stride=(1, 1), padding=(1, 1))
          (lrelu): LeakyReLU(negative_slope=0.2, inplace=True)
        )
        (RDB2): ResidualDenseBlock_5C(
          (conv1): Conv2d(64, 32, kernel_size=(3, 3), stride=(1, 1), padding=(1, 1))
          (conv2): Conv2d(96, 32, kernel_size=(3, 3), stride=(1, 1), padding=(1, 1))
          (conv3): Conv2d(128, 32, kernel_size=(3, 3), stride=(1, 1), padding=(1, 1))
          (conv4): Conv2d(160, 32, kernel_size=(3, 3), stride=(1, 1), padding=(1, 1))
          (conv5): Conv2d(192, 64, kernel_size=(3, 3), stride=(1, 1), padding=(1, 1))
          (lrelu): LeakyReLU(negative_slope=0.2, inplace=True)
        )
        (RDB3): ResidualDenseBlock_5C(
          (conv1): Conv2d(64, 32, kernel_size=(3, 3), stride=(1, 1), padding=(1, 1))
          (conv2): Conv2d(96, 32, kernel_size=(3, 3), stride=(1, 1), padding=(1, 1))
          (conv3): Conv2d(128, 32, kernel_size=(3, 3), stride=(1, 1), padding=(1, 1))
          (conv4): Conv2d(160, 32, kernel_size=(3, 3), stride=(1, 1), padding=(1, 1))
          (conv5): Conv2d(192, 64, kernel_size=(3, 3), stride=(1, 1), padding=(1, 1))
          (lrelu): LeakyReLU(negative_slope=0.2, inplace=True)
        )
      )
      (9): RRDB(
        (RDB1): ResidualDenseBlock_5C(
          (conv1): Conv2d(64, 32, kernel_size=(3, 3), stride=(1, 1), padding=(1, 1))
          (conv2): Conv2d(96, 32, kernel_size=(3, 3), stride=(1, 1), padding=(1, 1))
          (conv3): Conv2d(128, 32, kernel_size=(3, 3), stride=(1, 1), padding=(1, 1))
          (conv4): Conv2d(160, 32, kernel_size=(3, 3), stride=(1, 1), padding=(1, 1))
          (conv5): Conv2d(192, 64, kernel_size=(3, 3), stride=(1, 1), padding=(1, 1))
          (lrelu): LeakyReLU(negative_slope=0.2, inplace=True)
        )
        (RDB2): ResidualDenseBlock_5C(
          (conv1): Conv2d(64, 32, kernel_size=(3, 3), stride=(1, 1), padding=(1, 1))
          (conv2): Conv2d(96, 32, kernel_size=(3, 3), stride=(1, 1), padding=(1, 1))
          (conv3): Conv2d(128, 32, kernel_size=(3, 3), stride=(1, 1), padding=(1, 1))
          (conv4): Conv2d(160, 32, kernel_size=(3, 3), stride=(1, 1), padding=(1, 1))
          (conv5): Conv2d(192, 64, kernel_size=(3, 3), stride=(1, 1), padding=(1, 1))
          (lrelu): LeakyReLU(negative_slope=0.2, inplace=True)
        )
        (RDB3): ResidualDenseBlock_5C(
          (conv1): Conv2d(64, 32, kernel_size=(3, 3), stride=(1, 1), padding=(1, 1))
          (conv2): Conv2d(96, 32, kernel_size=(3, 3), stride=(1, 1), padding=(1, 1))
          (conv3): Conv2d(128, 32, kernel_size=(3, 3), stride=(1, 1), padding=(1, 1))
          (conv4): Conv2d(160, 32, kernel_size=(3, 3), stride=(1, 1), padding=(1, 1))
          (conv5): Conv2d(192, 64, kernel_size=(3, 3), stride=(1, 1), padding=(1, 1))
          (lrelu): LeakyReLU(negative_slope=0.2, inplace=True)
        )
      )
      (10): RRDB(
        (RDB1): ResidualDenseBlock_5C(
          (conv1): Conv2d(64, 32, kernel_size=(3, 3), stride=(1, 1), padding=(1, 1))
          (conv2): Conv2d(96, 32, kernel_size=(3, 3), stride=(1, 1), padding=(1, 1))
          (conv3): Conv2d(128, 32, kernel_size=(3, 3), stride=(1, 1), padding=(1, 1))
          (conv4): Conv2d(160, 32, kernel_size=(3, 3), stride=(1, 1), padding=(1, 1))
          (conv5): Conv2d(192, 64, kernel_size=(3, 3), stride=(1, 1), padding=(1, 1))
          (lrelu): LeakyReLU(negative_slope=0.2, inplace=True)
        )
        (RDB2): ResidualDenseBlock_5C(
          (conv1): Conv2d(64, 32, kernel_size=(3, 3), stride=(1, 1), padding=(1, 1))
          (conv2): Conv2d(96, 32, kernel_size=(3, 3), stride=(1, 1), padding=(1, 1))
          (conv3): Conv2d(128, 32, kernel_size=(3, 3), stride=(1, 1), padding=(1, 1))
          (conv4): Conv2d(160, 32, kernel_size=(3, 3), stride=(1, 1), padding=(1, 1))
          (conv5): Conv2d(192, 64, kernel_size=(3, 3), stride=(1, 1), padding=(1, 1))
          (lrelu): LeakyReLU(negative_slope=0.2, inplace=True)
        )
        (RDB3): ResidualDenseBlock_5C(
          (conv1): Conv2d(64, 32, kernel_size=(3, 3), stride=(1, 1), padding=(1, 1))
          (conv2): Conv2d(96, 32, kernel_size=(3, 3), stride=(1, 1), padding=(1, 1))
          (conv3): Conv2d(128, 32, kernel_size=(3, 3), stride=(1, 1), padding=(1, 1))
          (conv4): Conv2d(160, 32, kernel_size=(3, 3), stride=(1, 1), padding=(1, 1))
          (conv5): Conv2d(192, 64, kernel_size=(3, 3), stride=(1, 1), padding=(1, 1))
          (lrelu): LeakyReLU(negative_slope=0.2, inplace=True)
        )
      )
      (11): RRDB(
        (RDB1): ResidualDenseBlock_5C(
          (conv1): Conv2d(64, 32, kernel_size=(3, 3), stride=(1, 1), padding=(1, 1))
          (conv2): Conv2d(96, 32, kernel_size=(3, 3), stride=(1, 1), padding=(1, 1))
          (conv3): Conv2d(128, 32, kernel_size=(3, 3), stride=(1, 1), padding=(1, 1))
          (conv4): Conv2d(160, 32, kernel_size=(3, 3), stride=(1, 1), padding=(1, 1))
          (conv5): Conv2d(192, 64, kernel_size=(3, 3), stride=(1, 1), padding=(1, 1))
          (lrelu): LeakyReLU(negative_slope=0.2, inplace=True)
        )
        (RDB2): ResidualDenseBlock_5C(
          (conv1): Conv2d(64, 32, kernel_size=(3, 3), stride=(1, 1), padding=(1, 1))
          (conv2): Conv2d(96, 32, kernel_size=(3, 3), stride=(1, 1), padding=(1, 1))
          (conv3): Conv2d(128, 32, kernel_size=(3, 3), stride=(1, 1), padding=(1, 1))
          (conv4): Conv2d(160, 32, kernel_size=(3, 3), stride=(1, 1), padding=(1, 1))
          (conv5): Conv2d(192, 64, kernel_size=(3, 3), stride=(1, 1), padding=(1, 1))
          (lrelu): LeakyReLU(negative_slope=0.2, inplace=True)
        )
        (RDB3): ResidualDenseBlock_5C(
          (conv1): Conv2d(64, 32, kernel_size=(3, 3), stride=(1, 1), padding=(1, 1))
          (conv2): Conv2d(96, 32, kernel_size=(3, 3), stride=(1, 1), padding=(1, 1))
          (conv3): Conv2d(128, 32, kernel_size=(3, 3), stride=(1, 1), padding=(1, 1))
          (conv4): Conv2d(160, 32, kernel_size=(3, 3), stride=(1, 1), padding=(1, 1))
          (conv5): Conv2d(192, 64, kernel_size=(3, 3), stride=(1, 1), padding=(1, 1))
          (lrelu): LeakyReLU(negative_slope=0.2, inplace=True)
        )
      )
      (12): RRDB(
        (RDB1): ResidualDenseBlock_5C(
          (conv1): Conv2d(64, 32, kernel_size=(3, 3), stride=(1, 1), padding=(1, 1))
          (conv2): Conv2d(96, 32, kernel_size=(3, 3), stride=(1, 1), padding=(1, 1))
          (conv3): Conv2d(128, 32, kernel_size=(3, 3), stride=(1, 1), padding=(1, 1))
          (conv4): Conv2d(160, 32, kernel_size=(3, 3), stride=(1, 1), padding=(1, 1))
          (conv5): Conv2d(192, 64, kernel_size=(3, 3), stride=(1, 1), padding=(1, 1))
          (lrelu): LeakyReLU(negative_slope=0.2, inplace=True)
        )
        (RDB2): ResidualDenseBlock_5C(
          (conv1): Conv2d(64, 32, kernel_size=(3, 3), stride=(1, 1), padding=(1, 1))
          (conv2): Conv2d(96, 32, kernel_size=(3, 3), stride=(1, 1), padding=(1, 1))
          (conv3): Conv2d(128, 32, kernel_size=(3, 3), stride=(1, 1), padding=(1, 1))
          (conv4): Conv2d(160, 32, kernel_size=(3, 3), stride=(1, 1), padding=(1, 1))
          (conv5): Conv2d(192, 64, kernel_size=(3, 3), stride=(1, 1), padding=(1, 1))
          (lrelu): LeakyReLU(negative_slope=0.2, inplace=True)
        )
        (RDB3): ResidualDenseBlock_5C(
          (conv1): Conv2d(64, 32, kernel_size=(3, 3), stride=(1, 1), padding=(1, 1))
          (conv2): Conv2d(96, 32, kernel_size=(3, 3), stride=(1, 1), padding=(1, 1))
          (conv3): Conv2d(128, 32, kernel_size=(3, 3), stride=(1, 1), padding=(1, 1))
          (conv4): Conv2d(160, 32, kernel_size=(3, 3), stride=(1, 1), padding=(1, 1))
          (conv5): Conv2d(192, 64, kernel_size=(3, 3), stride=(1, 1), padding=(1, 1))
          (lrelu): LeakyReLU(negative_slope=0.2, inplace=True)
        )
      )
      (13): RRDB(
        (RDB1): ResidualDenseBlock_5C(
          (conv1): Conv2d(64, 32, kernel_size=(3, 3), stride=(1, 1), padding=(1, 1))
          (conv2): Conv2d(96, 32, kernel_size=(3, 3), stride=(1, 1), padding=(1, 1))
          (conv3): Conv2d(128, 32, kernel_size=(3, 3), stride=(1, 1), padding=(1, 1))
          (conv4): Conv2d(160, 32, kernel_size=(3, 3), stride=(1, 1), padding=(1, 1))
          (conv5): Conv2d(192, 64, kernel_size=(3, 3), stride=(1, 1), padding=(1, 1))
          (lrelu): LeakyReLU(negative_slope=0.2, inplace=True)
        )
        (RDB2): ResidualDenseBlock_5C(
          (conv1): Conv2d(64, 32, kernel_size=(3, 3), stride=(1, 1), padding=(1, 1))
          (conv2): Conv2d(96, 32, kernel_size=(3, 3), stride=(1, 1), padding=(1, 1))
          (conv3): Conv2d(128, 32, kernel_size=(3, 3), stride=(1, 1), padding=(1, 1))
          (conv4): Conv2d(160, 32, kernel_size=(3, 3), stride=(1, 1), padding=(1, 1))
          (conv5): Conv2d(192, 64, kernel_size=(3, 3), stride=(1, 1), padding=(1, 1))
          (lrelu): LeakyReLU(negative_slope=0.2, inplace=True)
        )
        (RDB3): ResidualDenseBlock_5C(
          (conv1): Conv2d(64, 32, kernel_size=(3, 3), stride=(1, 1), padding=(1, 1))
          (conv2): Conv2d(96, 32, kernel_size=(3, 3), stride=(1, 1), padding=(1, 1))
          (conv3): Conv2d(128, 32, kernel_size=(3, 3), stride=(1, 1), padding=(1, 1))
          (conv4): Conv2d(160, 32, kernel_size=(3, 3), stride=(1, 1), padding=(1, 1))
          (conv5): Conv2d(192, 64, kernel_size=(3, 3), stride=(1, 1), padding=(1, 1))
          (lrelu): LeakyReLU(negative_slope=0.2, inplace=True)
        )
      )
      (14): RRDB(
        (RDB1): ResidualDenseBlock_5C(
          (conv1): Conv2d(64, 32, kernel_size=(3, 3), stride=(1, 1), padding=(1, 1))
          (conv2): Conv2d(96, 32, kernel_size=(3, 3), stride=(1, 1), padding=(1, 1))
          (conv3): Conv2d(128, 32, kernel_size=(3, 3), stride=(1, 1), padding=(1, 1))
          (conv4): Conv2d(160, 32, kernel_size=(3, 3), stride=(1, 1), padding=(1, 1))
          (conv5): Conv2d(192, 64, kernel_size=(3, 3), stride=(1, 1), padding=(1, 1))
          (lrelu): LeakyReLU(negative_slope=0.2, inplace=True)
        )
        (RDB2): ResidualDenseBlock_5C(
          (conv1): Conv2d(64, 32, kernel_size=(3, 3), stride=(1, 1), padding=(1, 1))
          (conv2): Conv2d(96, 32, kernel_size=(3, 3), stride=(1, 1), padding=(1, 1))
          (conv3): Conv2d(128, 32, kernel_size=(3, 3), stride=(1, 1), padding=(1, 1))
          (conv4): Conv2d(160, 32, kernel_size=(3, 3), stride=(1, 1), padding=(1, 1))
          (conv5): Conv2d(192, 64, kernel_size=(3, 3), stride=(1, 1), padding=(1, 1))
          (lrelu): LeakyReLU(negative_slope=0.2, inplace=True)
        )
        (RDB3): ResidualDenseBlock_5C(
          (conv1): Conv2d(64, 32, kernel_size=(3, 3), stride=(1, 1), padding=(1, 1))
          (conv2): Conv2d(96, 32, kernel_size=(3, 3), stride=(1, 1), padding=(1, 1))
          (conv3): Conv2d(128, 32, kernel_size=(3, 3), stride=(1, 1), padding=(1, 1))
          (conv4): Conv2d(160, 32, kernel_size=(3, 3), stride=(1, 1), padding=(1, 1))
          (conv5): Conv2d(192, 64, kernel_size=(3, 3), stride=(1, 1), padding=(1, 1))
          (lrelu): LeakyReLU(negative_slope=0.2, inplace=True)
        )
      )
      (15): RRDB(
        (RDB1): ResidualDenseBlock_5C(
          (conv1): Conv2d(64, 32, kernel_size=(3, 3), stride=(1, 1), padding=(1, 1))
          (conv2): Conv2d(96, 32, kernel_size=(3, 3), stride=(1, 1), padding=(1, 1))
          (conv3): Conv2d(128, 32, kernel_size=(3, 3), stride=(1, 1), padding=(1, 1))
          (conv4): Conv2d(160, 32, kernel_size=(3, 3), stride=(1, 1), padding=(1, 1))
          (conv5): Conv2d(192, 64, kernel_size=(3, 3), stride=(1, 1), padding=(1, 1))
          (lrelu): LeakyReLU(negative_slope=0.2, inplace=True)
        )
        (RDB2): ResidualDenseBlock_5C(
          (conv1): Conv2d(64, 32, kernel_size=(3, 3), stride=(1, 1), padding=(1, 1))
          (conv2): Conv2d(96, 32, kernel_size=(3, 3), stride=(1, 1), padding=(1, 1))
          (conv3): Conv2d(128, 32, kernel_size=(3, 3), stride=(1, 1), padding=(1, 1))
          (conv4): Conv2d(160, 32, kernel_size=(3, 3), stride=(1, 1), padding=(1, 1))
          (conv5): Conv2d(192, 64, kernel_size=(3, 3), stride=(1, 1), padding=(1, 1))
          (lrelu): LeakyReLU(negative_slope=0.2, inplace=True)
        )
        (RDB3): ResidualDenseBlock_5C(
          (conv1): Conv2d(64, 32, kernel_size=(3, 3), stride=(1, 1), padding=(1, 1))
          (conv2): Conv2d(96, 32, kernel_size=(3, 3), stride=(1, 1), padding=(1, 1))
          (conv3): Conv2d(128, 32, kernel_size=(3, 3), stride=(1, 1), padding=(1, 1))
          (conv4): Conv2d(160, 32, kernel_size=(3, 3), stride=(1, 1), padding=(1, 1))
          (conv5): Conv2d(192, 64, kernel_size=(3, 3), stride=(1, 1), padding=(1, 1))
          (lrelu): LeakyReLU(negative_slope=0.2, inplace=True)
        )
      )
      (16): RRDB(
        (RDB1): ResidualDenseBlock_5C(
          (conv1): Conv2d(64, 32, kernel_size=(3, 3), stride=(1, 1), padding=(1, 1))
          (conv2): Conv2d(96, 32, kernel_size=(3, 3), stride=(1, 1), padding=(1, 1))
          (conv3): Conv2d(128, 32, kernel_size=(3, 3), stride=(1, 1), padding=(1, 1))
          (conv4): Conv2d(160, 32, kernel_size=(3, 3), stride=(1, 1), padding=(1, 1))
          (conv5): Conv2d(192, 64, kernel_size=(3, 3), stride=(1, 1), padding=(1, 1))
          (lrelu): LeakyReLU(negative_slope=0.2, inplace=True)
        )
        (RDB2): ResidualDenseBlock_5C(
          (conv1): Conv2d(64, 32, kernel_size=(3, 3), stride=(1, 1), padding=(1, 1))
          (conv2): Conv2d(96, 32, kernel_size=(3, 3), stride=(1, 1), padding=(1, 1))
          (conv3): Conv2d(128, 32, kernel_size=(3, 3), stride=(1, 1), padding=(1, 1))
          (conv4): Conv2d(160, 32, kernel_size=(3, 3), stride=(1, 1), padding=(1, 1))
          (conv5): Conv2d(192, 64, kernel_size=(3, 3), stride=(1, 1), padding=(1, 1))
          (lrelu): LeakyReLU(negative_slope=0.2, inplace=True)
        )
        (RDB3): ResidualDenseBlock_5C(
          (conv1): Conv2d(64, 32, kernel_size=(3, 3), stride=(1, 1), padding=(1, 1))
          (conv2): Conv2d(96, 32, kernel_size=(3, 3), stride=(1, 1), padding=(1, 1))
          (conv3): Conv2d(128, 32, kernel_size=(3, 3), stride=(1, 1), padding=(1, 1))
          (conv4): Conv2d(160, 32, kernel_size=(3, 3), stride=(1, 1), padding=(1, 1))
          (conv5): Conv2d(192, 64, kernel_size=(3, 3), stride=(1, 1), padding=(1, 1))
          (lrelu): LeakyReLU(negative_slope=0.2, inplace=True)
        )
      )
      (17): RRDB(
        (RDB1): ResidualDenseBlock_5C(
          (conv1): Conv2d(64, 32, kernel_size=(3, 3), stride=(1, 1), padding=(1, 1))
          (conv2): Conv2d(96, 32, kernel_size=(3, 3), stride=(1, 1), padding=(1, 1))
          (conv3): Conv2d(128, 32, kernel_size=(3, 3), stride=(1, 1), padding=(1, 1))
          (conv4): Conv2d(160, 32, kernel_size=(3, 3), stride=(1, 1), padding=(1, 1))
          (conv5): Conv2d(192, 64, kernel_size=(3, 3), stride=(1, 1), padding=(1, 1))
          (lrelu): LeakyReLU(negative_slope=0.2, inplace=True)
        )
        (RDB2): ResidualDenseBlock_5C(
          (conv1): Conv2d(64, 32, kernel_size=(3, 3), stride=(1, 1), padding=(1, 1))
          (conv2): Conv2d(96, 32, kernel_size=(3, 3), stride=(1, 1), padding=(1, 1))
          (conv3): Conv2d(128, 32, kernel_size=(3, 3), stride=(1, 1), padding=(1, 1))
          (conv4): Conv2d(160, 32, kernel_size=(3, 3), stride=(1, 1), padding=(1, 1))
          (conv5): Conv2d(192, 64, kernel_size=(3, 3), stride=(1, 1), padding=(1, 1))
          (lrelu): LeakyReLU(negative_slope=0.2, inplace=True)
        )
        (RDB3): ResidualDenseBlock_5C(
          (conv1): Conv2d(64, 32, kernel_size=(3, 3), stride=(1, 1), padding=(1, 1))
          (conv2): Conv2d(96, 32, kernel_size=(3, 3), stride=(1, 1), padding=(1, 1))
          (conv3): Conv2d(128, 32, kernel_size=(3, 3), stride=(1, 1), padding=(1, 1))
          (conv4): Conv2d(160, 32, kernel_size=(3, 3), stride=(1, 1), padding=(1, 1))
          (conv5): Conv2d(192, 64, kernel_size=(3, 3), stride=(1, 1), padding=(1, 1))
          (lrelu): LeakyReLU(negative_slope=0.2, inplace=True)
        )
      )
      (18): RRDB(
        (RDB1): ResidualDenseBlock_5C(
          (conv1): Conv2d(64, 32, kernel_size=(3, 3), stride=(1, 1), padding=(1, 1))
          (conv2): Conv2d(96, 32, kernel_size=(3, 3), stride=(1, 1), padding=(1, 1))
          (conv3): Conv2d(128, 32, kernel_size=(3, 3), stride=(1, 1), padding=(1, 1))
          (conv4): Conv2d(160, 32, kernel_size=(3, 3), stride=(1, 1), padding=(1, 1))
          (conv5): Conv2d(192, 64, kernel_size=(3, 3), stride=(1, 1), padding=(1, 1))
          (lrelu): LeakyReLU(negative_slope=0.2, inplace=True)
        )
        (RDB2): ResidualDenseBlock_5C(
          (conv1): Conv2d(64, 32, kernel_size=(3, 3), stride=(1, 1), padding=(1, 1))
          (conv2): Conv2d(96, 32, kernel_size=(3, 3), stride=(1, 1), padding=(1, 1))
          (conv3): Conv2d(128, 32, kernel_size=(3, 3), stride=(1, 1), padding=(1, 1))
          (conv4): Conv2d(160, 32, kernel_size=(3, 3), stride=(1, 1), padding=(1, 1))
          (conv5): Conv2d(192, 64, kernel_size=(3, 3), stride=(1, 1), padding=(1, 1))
          (lrelu): LeakyReLU(negative_slope=0.2, inplace=True)
        )
        (RDB3): ResidualDenseBlock_5C(
          (conv1): Conv2d(64, 32, kernel_size=(3, 3), stride=(1, 1), padding=(1, 1))
          (conv2): Conv2d(96, 32, kernel_size=(3, 3), stride=(1, 1), padding=(1, 1))
          (conv3): Conv2d(128, 32, kernel_size=(3, 3), stride=(1, 1), padding=(1, 1))
          (conv4): Conv2d(160, 32, kernel_size=(3, 3), stride=(1, 1), padding=(1, 1))
          (conv5): Conv2d(192, 64, kernel_size=(3, 3), stride=(1, 1), padding=(1, 1))
          (lrelu): LeakyReLU(negative_slope=0.2, inplace=True)
        )
      )
      (19): RRDB(
        (RDB1): ResidualDenseBlock_5C(
          (conv1): Conv2d(64, 32, kernel_size=(3, 3), stride=(1, 1), padding=(1, 1))
          (conv2): Conv2d(96, 32, kernel_size=(3, 3), stride=(1, 1), padding=(1, 1))
          (conv3): Conv2d(128, 32, kernel_size=(3, 3), stride=(1, 1), padding=(1, 1))
          (conv4): Conv2d(160, 32, kernel_size=(3, 3), stride=(1, 1), padding=(1, 1))
          (conv5): Conv2d(192, 64, kernel_size=(3, 3), stride=(1, 1), padding=(1, 1))
          (lrelu): LeakyReLU(negative_slope=0.2, inplace=True)
        )
        (RDB2): ResidualDenseBlock_5C(
          (conv1): Conv2d(64, 32, kernel_size=(3, 3), stride=(1, 1), padding=(1, 1))
          (conv2): Conv2d(96, 32, kernel_size=(3, 3), stride=(1, 1), padding=(1, 1))
          (conv3): Conv2d(128, 32, kernel_size=(3, 3), stride=(1, 1), padding=(1, 1))
          (conv4): Conv2d(160, 32, kernel_size=(3, 3), stride=(1, 1), padding=(1, 1))
          (conv5): Conv2d(192, 64, kernel_size=(3, 3), stride=(1, 1), padding=(1, 1))
          (lrelu): LeakyReLU(negative_slope=0.2, inplace=True)
        )
        (RDB3): ResidualDenseBlock_5C(
          (conv1): Conv2d(64, 32, kernel_size=(3, 3), stride=(1, 1), padding=(1, 1))
          (conv2): Conv2d(96, 32, kernel_size=(3, 3), stride=(1, 1), padding=(1, 1))
          (conv3): Conv2d(128, 32, kernel_size=(3, 3), stride=(1, 1), padding=(1, 1))
          (conv4): Conv2d(160, 32, kernel_size=(3, 3), stride=(1, 1), padding=(1, 1))
          (conv5): Conv2d(192, 64, kernel_size=(3, 3), stride=(1, 1), padding=(1, 1))
          (lrelu): LeakyReLU(negative_slope=0.2, inplace=True)
        )
      )
      (20): RRDB(
        (RDB1): ResidualDenseBlock_5C(
          (conv1): Conv2d(64, 32, kernel_size=(3, 3), stride=(1, 1), padding=(1, 1))
          (conv2): Conv2d(96, 32, kernel_size=(3, 3), stride=(1, 1), padding=(1, 1))
          (conv3): Conv2d(128, 32, kernel_size=(3, 3), stride=(1, 1), padding=(1, 1))
          (conv4): Conv2d(160, 32, kernel_size=(3, 3), stride=(1, 1), padding=(1, 1))
          (conv5): Conv2d(192, 64, kernel_size=(3, 3), stride=(1, 1), padding=(1, 1))
          (lrelu): LeakyReLU(negative_slope=0.2, inplace=True)
        )
        (RDB2): ResidualDenseBlock_5C(
          (conv1): Conv2d(64, 32, kernel_size=(3, 3), stride=(1, 1), padding=(1, 1))
          (conv2): Conv2d(96, 32, kernel_size=(3, 3), stride=(1, 1), padding=(1, 1))
          (conv3): Conv2d(128, 32, kernel_size=(3, 3), stride=(1, 1), padding=(1, 1))
          (conv4): Conv2d(160, 32, kernel_size=(3, 3), stride=(1, 1), padding=(1, 1))
          (conv5): Conv2d(192, 64, kernel_size=(3, 3), stride=(1, 1), padding=(1, 1))
          (lrelu): LeakyReLU(negative_slope=0.2, inplace=True)
        )
        (RDB3): ResidualDenseBlock_5C(
          (conv1): Conv2d(64, 32, kernel_size=(3, 3), stride=(1, 1), padding=(1, 1))
          (conv2): Conv2d(96, 32, kernel_size=(3, 3), stride=(1, 1), padding=(1, 1))
          (conv3): Conv2d(128, 32, kernel_size=(3, 3), stride=(1, 1), padding=(1, 1))
          (conv4): Conv2d(160, 32, kernel_size=(3, 3), stride=(1, 1), padding=(1, 1))
          (conv5): Conv2d(192, 64, kernel_size=(3, 3), stride=(1, 1), padding=(1, 1))
          (lrelu): LeakyReLU(negative_slope=0.2, inplace=True)
        )
      )
      (21): RRDB(
        (RDB1): ResidualDenseBlock_5C(
          (conv1): Conv2d(64, 32, kernel_size=(3, 3), stride=(1, 1), padding=(1, 1))
          (conv2): Conv2d(96, 32, kernel_size=(3, 3), stride=(1, 1), padding=(1, 1))
          (conv3): Conv2d(128, 32, kernel_size=(3, 3), stride=(1, 1), padding=(1, 1))
          (conv4): Conv2d(160, 32, kernel_size=(3, 3), stride=(1, 1), padding=(1, 1))
          (conv5): Conv2d(192, 64, kernel_size=(3, 3), stride=(1, 1), padding=(1, 1))
          (lrelu): LeakyReLU(negative_slope=0.2, inplace=True)
        )
        (RDB2): ResidualDenseBlock_5C(
          (conv1): Conv2d(64, 32, kernel_size=(3, 3), stride=(1, 1), padding=(1, 1))
          (conv2): Conv2d(96, 32, kernel_size=(3, 3), stride=(1, 1), padding=(1, 1))
          (conv3): Conv2d(128, 32, kernel_size=(3, 3), stride=(1, 1), padding=(1, 1))
          (conv4): Conv2d(160, 32, kernel_size=(3, 3), stride=(1, 1), padding=(1, 1))
          (conv5): Conv2d(192, 64, kernel_size=(3, 3), stride=(1, 1), padding=(1, 1))
          (lrelu): LeakyReLU(negative_slope=0.2, inplace=True)
        )
        (RDB3): ResidualDenseBlock_5C(
          (conv1): Conv2d(64, 32, kernel_size=(3, 3), stride=(1, 1), padding=(1, 1))
          (conv2): Conv2d(96, 32, kernel_size=(3, 3), stride=(1, 1), padding=(1, 1))
          (conv3): Conv2d(128, 32, kernel_size=(3, 3), stride=(1, 1), padding=(1, 1))
          (conv4): Conv2d(160, 32, kernel_size=(3, 3), stride=(1, 1), padding=(1, 1))
          (conv5): Conv2d(192, 64, kernel_size=(3, 3), stride=(1, 1), padding=(1, 1))
          (lrelu): LeakyReLU(negative_slope=0.2, inplace=True)
        )
      )
      (22): RRDB(
        (RDB1): ResidualDenseBlock_5C(
          (conv1): Conv2d(64, 32, kernel_size=(3, 3), stride=(1, 1), padding=(1, 1))
          (conv2): Conv2d(96, 32, kernel_size=(3, 3), stride=(1, 1), padding=(1, 1))
          (conv3): Conv2d(128, 32, kernel_size=(3, 3), stride=(1, 1), padding=(1, 1))
          (conv4): Conv2d(160, 32, kernel_size=(3, 3), stride=(1, 1), padding=(1, 1))
          (conv5): Conv2d(192, 64, kernel_size=(3, 3), stride=(1, 1), padding=(1, 1))
          (lrelu): LeakyReLU(negative_slope=0.2, inplace=True)
        )
        (RDB2): ResidualDenseBlock_5C(
          (conv1): Conv2d(64, 32, kernel_size=(3, 3), stride=(1, 1), padding=(1, 1))
          (conv2): Conv2d(96, 32, kernel_size=(3, 3), stride=(1, 1), padding=(1, 1))
          (conv3): Conv2d(128, 32, kernel_size=(3, 3), stride=(1, 1), padding=(1, 1))
          (conv4): Conv2d(160, 32, kernel_size=(3, 3), stride=(1, 1), padding=(1, 1))
          (conv5): Conv2d(192, 64, kernel_size=(3, 3), stride=(1, 1), padding=(1, 1))
          (lrelu): LeakyReLU(negative_slope=0.2, inplace=True)
        )
        (RDB3): ResidualDenseBlock_5C(
          (conv1): Conv2d(64, 32, kernel_size=(3, 3), stride=(1, 1), padding=(1, 1))
          (conv2): Conv2d(96, 32, kernel_size=(3, 3), stride=(1, 1), padding=(1, 1))
          (conv3): Conv2d(128, 32, kernel_size=(3, 3), stride=(1, 1), padding=(1, 1))
          (conv4): Conv2d(160, 32, kernel_size=(3, 3), stride=(1, 1), padding=(1, 1))
          (conv5): Conv2d(192, 64, kernel_size=(3, 3), stride=(1, 1), padding=(1, 1))
          (lrelu): LeakyReLU(negative_slope=0.2, inplace=True)
        )
      )
    )
    (trunk_conv): Conv2d(64, 64, kernel_size=(3, 3), stride=(1, 1), padding=(1, 1))
    (upconv1): Conv2d(64, 64, kernel_size=(3, 3), stride=(1, 1), padding=(1, 1))
    (upconv2): Conv2d(64, 64, kernel_size=(3, 3), stride=(1, 1), padding=(1, 1))
    (HRconv): Conv2d(64, 64, kernel_size=(3, 3), stride=(1, 1), padding=(1, 1))
    (conv_last): Conv2d(64, 3, kernel_size=(3, 3), stride=(1, 1), padding=(1, 1))
    (lrelu): LeakyReLU(negative_slope=0.2, inplace=True)
  )
  (flowUpsamplerNet): FlowUpsamplerNet(
    (layers): ModuleList(
      (0): SqueezeLayer()
      (1): FlowStep(
        (actnorm): ActNorm2d()
        (invconv): InvertibleConv1x1()
      )
      (2): FlowStep(
        (actnorm): ActNorm2d()
        (invconv): InvertibleConv1x1()
      )
      (3): FlowStep(
        (actnorm): ActNorm2d()
        (invconv): InvertibleConv1x1()
        (affine): CondAffineSeparatedAndCond(
          (fAffine): Sequential(
            (0): Conv2d(
              326, 64, kernel_size=[3, 3], stride=[1, 1], padding=[1, 1], bias=False
              (actnorm): ActNorm2d()
            )
            (1): ReLU()
            (2): Conv2d(
              64, 64, kernel_size=[1, 1], stride=[1, 1], padding=[0, 0], bias=False
              (actnorm): ActNorm2d()
            )
            (3): ReLU()
            (4): Conv2dZeros(64, 12, kernel_size=[3, 3], stride=[1, 1], padding=[1, 1])
          )
          (fFeatures): Sequential(
            (0): Conv2d(
              320, 64, kernel_size=[3, 3], stride=[1, 1], padding=[1, 1], bias=False
              (actnorm): ActNorm2d()
            )
            (1): ReLU()
            (2): Conv2d(
              64, 64, kernel_size=[1, 1], stride=[1, 1], padding=[0, 0], bias=False
              (actnorm): ActNorm2d()
            )
            (3): ReLU()
            (4): Conv2dZeros(64, 24, kernel_size=[3, 3], stride=[1, 1], padding=[1, 1])
          )
        )
      )
      (4): FlowStep(
        (actnorm): ActNorm2d()
        (invconv): InvertibleConv1x1()
        (affine): CondAffineSeparatedAndCond(
          (fAffine): Sequential(
            (0): Conv2d(
              326, 64, kernel_size=[3, 3], stride=[1, 1], padding=[1, 1], bias=False
              (actnorm): ActNorm2d()
            )
            (1): ReLU()
            (2): Conv2d(
              64, 64, kernel_size=[1, 1], stride=[1, 1], padding=[0, 0], bias=False
              (actnorm): ActNorm2d()
            )
            (3): ReLU()
            (4): Conv2dZeros(64, 12, kernel_size=[3, 3], stride=[1, 1], padding=[1, 1])
          )
          (fFeatures): Sequential(
            (0): Conv2d(
              320, 64, kernel_size=[3, 3], stride=[1, 1], padding=[1, 1], bias=False
              (actnorm): ActNorm2d()
            )
            (1): ReLU()
            (2): Conv2d(
              64, 64, kernel_size=[1, 1], stride=[1, 1], padding=[0, 0], bias=False
              (actnorm): ActNorm2d()
            )
            (3): ReLU()
            (4): Conv2dZeros(64, 24, kernel_size=[3, 3], stride=[1, 1], padding=[1, 1])
          )
        )
      )
      (5): FlowStep(
        (actnorm): ActNorm2d()
        (invconv): InvertibleConv1x1()
        (affine): CondAffineSeparatedAndCond(
          (fAffine): Sequential(
            (0): Conv2d(
              326, 64, kernel_size=[3, 3], stride=[1, 1], padding=[1, 1], bias=False
              (actnorm): ActNorm2d()
            )
            (1): ReLU()
            (2): Conv2d(
              64, 64, kernel_size=[1, 1], stride=[1, 1], padding=[0, 0], bias=False
              (actnorm): ActNorm2d()
            )
            (3): ReLU()
            (4): Conv2dZeros(64, 12, kernel_size=[3, 3], stride=[1, 1], padding=[1, 1])
          )
          (fFeatures): Sequential(
            (0): Conv2d(
              320, 64, kernel_size=[3, 3], stride=[1, 1], padding=[1, 1], bias=False
              (actnorm): ActNorm2d()
            )
            (1): ReLU()
            (2): Conv2d(
              64, 64, kernel_size=[1, 1], stride=[1, 1], padding=[0, 0], bias=False
              (actnorm): ActNorm2d()
            )
            (3): ReLU()
            (4): Conv2dZeros(64, 24, kernel_size=[3, 3], stride=[1, 1], padding=[1, 1])
          )
        )
      )
      (6): FlowStep(
        (actnorm): ActNorm2d()
        (invconv): InvertibleConv1x1()
        (affine): CondAffineSeparatedAndCond(
          (fAffine): Sequential(
            (0): Conv2d(
              326, 64, kernel_size=[3, 3], stride=[1, 1], padding=[1, 1], bias=False
              (actnorm): ActNorm2d()
            )
            (1): ReLU()
            (2): Conv2d(
              64, 64, kernel_size=[1, 1], stride=[1, 1], padding=[0, 0], bias=False
              (actnorm): ActNorm2d()
            )
            (3): ReLU()
            (4): Conv2dZeros(64, 12, kernel_size=[3, 3], stride=[1, 1], padding=[1, 1])
          )
          (fFeatures): Sequential(
            (0): Conv2d(
              320, 64, kernel_size=[3, 3], stride=[1, 1], padding=[1, 1], bias=False
              (actnorm): ActNorm2d()
            )
            (1): ReLU()
            (2): Conv2d(
              64, 64, kernel_size=[1, 1], stride=[1, 1], padding=[0, 0], bias=False
              (actnorm): ActNorm2d()
            )
            (3): ReLU()
            (4): Conv2dZeros(64, 24, kernel_size=[3, 3], stride=[1, 1], padding=[1, 1])
          )
        )
      )
      (7): FlowStep(
        (actnorm): ActNorm2d()
        (invconv): InvertibleConv1x1()
        (affine): CondAffineSeparatedAndCond(
          (fAffine): Sequential(
            (0): Conv2d(
              326, 64, kernel_size=[3, 3], stride=[1, 1], padding=[1, 1], bias=False
              (actnorm): ActNorm2d()
            )
            (1): ReLU()
            (2): Conv2d(
              64, 64, kernel_size=[1, 1], stride=[1, 1], padding=[0, 0], bias=False
              (actnorm): ActNorm2d()
            )
            (3): ReLU()
            (4): Conv2dZeros(64, 12, kernel_size=[3, 3], stride=[1, 1], padding=[1, 1])
          )
          (fFeatures): Sequential(
            (0): Conv2d(
              320, 64, kernel_size=[3, 3], stride=[1, 1], padding=[1, 1], bias=False
              (actnorm): ActNorm2d()
            )
            (1): ReLU()
            (2): Conv2d(
              64, 64, kernel_size=[1, 1], stride=[1, 1], padding=[0, 0], bias=False
              (actnorm): ActNorm2d()
            )
            (3): ReLU()
            (4): Conv2dZeros(64, 24, kernel_size=[3, 3], stride=[1, 1], padding=[1, 1])
          )
        )
      )
      (8): FlowStep(
        (actnorm): ActNorm2d()
        (invconv): InvertibleConv1x1()
        (affine): CondAffineSeparatedAndCond(
          (fAffine): Sequential(
            (0): Conv2d(
              326, 64, kernel_size=[3, 3], stride=[1, 1], padding=[1, 1], bias=False
              (actnorm): ActNorm2d()
            )
            (1): ReLU()
            (2): Conv2d(
              64, 64, kernel_size=[1, 1], stride=[1, 1], padding=[0, 0], bias=False
              (actnorm): ActNorm2d()
            )
            (3): ReLU()
            (4): Conv2dZeros(64, 12, kernel_size=[3, 3], stride=[1, 1], padding=[1, 1])
          )
          (fFeatures): Sequential(
            (0): Conv2d(
              320, 64, kernel_size=[3, 3], stride=[1, 1], padding=[1, 1], bias=False
              (actnorm): ActNorm2d()
            )
            (1): ReLU()
            (2): Conv2d(
              64, 64, kernel_size=[1, 1], stride=[1, 1], padding=[0, 0], bias=False
              (actnorm): ActNorm2d()
            )
            (3): ReLU()
            (4): Conv2dZeros(64, 24, kernel_size=[3, 3], stride=[1, 1], padding=[1, 1])
          )
        )
      )
      (9): FlowStep(
        (actnorm): ActNorm2d()
        (invconv): InvertibleConv1x1()
        (affine): CondAffineSeparatedAndCond(
          (fAffine): Sequential(
            (0): Conv2d(
              326, 64, kernel_size=[3, 3], stride=[1, 1], padding=[1, 1], bias=False
              (actnorm): ActNorm2d()
            )
            (1): ReLU()
            (2): Conv2d(
              64, 64, kernel_size=[1, 1], stride=[1, 1], padding=[0, 0], bias=False
              (actnorm): ActNorm2d()
            )
            (3): ReLU()
            (4): Conv2dZeros(64, 12, kernel_size=[3, 3], stride=[1, 1], padding=[1, 1])
          )
          (fFeatures): Sequential(
            (0): Conv2d(
              320, 64, kernel_size=[3, 3], stride=[1, 1], padding=[1, 1], bias=False
              (actnorm): ActNorm2d()
            )
            (1): ReLU()
            (2): Conv2d(
              64, 64, kernel_size=[1, 1], stride=[1, 1], padding=[0, 0], bias=False
              (actnorm): ActNorm2d()
            )
            (3): ReLU()
            (4): Conv2dZeros(64, 24, kernel_size=[3, 3], stride=[1, 1], padding=[1, 1])
          )
        )
      )
      (10): FlowStep(
        (actnorm): ActNorm2d()
        (invconv): InvertibleConv1x1()
        (affine): CondAffineSeparatedAndCond(
          (fAffine): Sequential(
            (0): Conv2d(
              326, 64, kernel_size=[3, 3], stride=[1, 1], padding=[1, 1], bias=False
              (actnorm): ActNorm2d()
            )
            (1): ReLU()
            (2): Conv2d(
              64, 64, kernel_size=[1, 1], stride=[1, 1], padding=[0, 0], bias=False
              (actnorm): ActNorm2d()
            )
            (3): ReLU()
            (4): Conv2dZeros(64, 12, kernel_size=[3, 3], stride=[1, 1], padding=[1, 1])
          )
          (fFeatures): Sequential(
            (0): Conv2d(
              320, 64, kernel_size=[3, 3], stride=[1, 1], padding=[1, 1], bias=False
              (actnorm): ActNorm2d()
            )
            (1): ReLU()
            (2): Conv2d(
              64, 64, kernel_size=[1, 1], stride=[1, 1], padding=[0, 0], bias=False
              (actnorm): ActNorm2d()
            )
            (3): ReLU()
            (4): Conv2dZeros(64, 24, kernel_size=[3, 3], stride=[1, 1], padding=[1, 1])
          )
        )
      )
      (11): FlowStep(
        (actnorm): ActNorm2d()
        (invconv): InvertibleConv1x1()
        (affine): CondAffineSeparatedAndCond(
          (fAffine): Sequential(
            (0): Conv2d(
              326, 64, kernel_size=[3, 3], stride=[1, 1], padding=[1, 1], bias=False
              (actnorm): ActNorm2d()
            )
            (1): ReLU()
            (2): Conv2d(
              64, 64, kernel_size=[1, 1], stride=[1, 1], padding=[0, 0], bias=False
              (actnorm): ActNorm2d()
            )
            (3): ReLU()
            (4): Conv2dZeros(64, 12, kernel_size=[3, 3], stride=[1, 1], padding=[1, 1])
          )
          (fFeatures): Sequential(
            (0): Conv2d(
              320, 64, kernel_size=[3, 3], stride=[1, 1], padding=[1, 1], bias=False
              (actnorm): ActNorm2d()
            )
            (1): ReLU()
            (2): Conv2d(
              64, 64, kernel_size=[1, 1], stride=[1, 1], padding=[0, 0], bias=False
              (actnorm): ActNorm2d()
            )
            (3): ReLU()
            (4): Conv2dZeros(64, 24, kernel_size=[3, 3], stride=[1, 1], padding=[1, 1])
          )
        )
      )
      (12): FlowStep(
        (actnorm): ActNorm2d()
        (invconv): InvertibleConv1x1()
        (affine): CondAffineSeparatedAndCond(
          (fAffine): Sequential(
            (0): Conv2d(
              326, 64, kernel_size=[3, 3], stride=[1, 1], padding=[1, 1], bias=False
              (actnorm): ActNorm2d()
            )
            (1): ReLU()
            (2): Conv2d(
              64, 64, kernel_size=[1, 1], stride=[1, 1], padding=[0, 0], bias=False
              (actnorm): ActNorm2d()
            )
            (3): ReLU()
            (4): Conv2dZeros(64, 12, kernel_size=[3, 3], stride=[1, 1], padding=[1, 1])
          )
          (fFeatures): Sequential(
            (0): Conv2d(
              320, 64, kernel_size=[3, 3], stride=[1, 1], padding=[1, 1], bias=False
              (actnorm): ActNorm2d()
            )
            (1): ReLU()
            (2): Conv2d(
              64, 64, kernel_size=[1, 1], stride=[1, 1], padding=[0, 0], bias=False
              (actnorm): ActNorm2d()
            )
            (3): ReLU()
            (4): Conv2dZeros(64, 24, kernel_size=[3, 3], stride=[1, 1], padding=[1, 1])
          )
        )
      )
      (13): FlowStep(
        (actnorm): ActNorm2d()
        (invconv): InvertibleConv1x1()
        (affine): CondAffineSeparatedAndCond(
          (fAffine): Sequential(
            (0): Conv2d(
              326, 64, kernel_size=[3, 3], stride=[1, 1], padding=[1, 1], bias=False
              (actnorm): ActNorm2d()
            )
            (1): ReLU()
            (2): Conv2d(
              64, 64, kernel_size=[1, 1], stride=[1, 1], padding=[0, 0], bias=False
              (actnorm): ActNorm2d()
            )
            (3): ReLU()
            (4): Conv2dZeros(64, 12, kernel_size=[3, 3], stride=[1, 1], padding=[1, 1])
          )
          (fFeatures): Sequential(
            (0): Conv2d(
              320, 64, kernel_size=[3, 3], stride=[1, 1], padding=[1, 1], bias=False
              (actnorm): ActNorm2d()
            )
            (1): ReLU()
            (2): Conv2d(
              64, 64, kernel_size=[1, 1], stride=[1, 1], padding=[0, 0], bias=False
              (actnorm): ActNorm2d()
            )
            (3): ReLU()
            (4): Conv2dZeros(64, 24, kernel_size=[3, 3], stride=[1, 1], padding=[1, 1])
          )
        )
      )
      (14): FlowStep(
        (actnorm): ActNorm2d()
        (invconv): InvertibleConv1x1()
        (affine): CondAffineSeparatedAndCond(
          (fAffine): Sequential(
            (0): Conv2d(
              326, 64, kernel_size=[3, 3], stride=[1, 1], padding=[1, 1], bias=False
              (actnorm): ActNorm2d()
            )
            (1): ReLU()
            (2): Conv2d(
              64, 64, kernel_size=[1, 1], stride=[1, 1], padding=[0, 0], bias=False
              (actnorm): ActNorm2d()
            )
            (3): ReLU()
            (4): Conv2dZeros(64, 12, kernel_size=[3, 3], stride=[1, 1], padding=[1, 1])
          )
          (fFeatures): Sequential(
            (0): Conv2d(
              320, 64, kernel_size=[3, 3], stride=[1, 1], padding=[1, 1], bias=False
              (actnorm): ActNorm2d()
            )
            (1): ReLU()
            (2): Conv2d(
              64, 64, kernel_size=[1, 1], stride=[1, 1], padding=[0, 0], bias=False
              (actnorm): ActNorm2d()
            )
            (3): ReLU()
            (4): Conv2dZeros(64, 24, kernel_size=[3, 3], stride=[1, 1], padding=[1, 1])
          )
        )
      )
      (15): FlowStep(
        (actnorm): ActNorm2d()
        (invconv): InvertibleConv1x1()
        (affine): CondAffineSeparatedAndCond(
          (fAffine): Sequential(
            (0): Conv2d(
              326, 64, kernel_size=[3, 3], stride=[1, 1], padding=[1, 1], bias=False
              (actnorm): ActNorm2d()
            )
            (1): ReLU()
            (2): Conv2d(
              64, 64, kernel_size=[1, 1], stride=[1, 1], padding=[0, 0], bias=False
              (actnorm): ActNorm2d()
            )
            (3): ReLU()
            (4): Conv2dZeros(64, 12, kernel_size=[3, 3], stride=[1, 1], padding=[1, 1])
          )
          (fFeatures): Sequential(
            (0): Conv2d(
              320, 64, kernel_size=[3, 3], stride=[1, 1], padding=[1, 1], bias=False
              (actnorm): ActNorm2d()
            )
            (1): ReLU()
            (2): Conv2d(
              64, 64, kernel_size=[1, 1], stride=[1, 1], padding=[0, 0], bias=False
              (actnorm): ActNorm2d()
            )
            (3): ReLU()
            (4): Conv2dZeros(64, 24, kernel_size=[3, 3], stride=[1, 1], padding=[1, 1])
          )
        )
      )
      (16): FlowStep(
        (actnorm): ActNorm2d()
        (invconv): InvertibleConv1x1()
        (affine): CondAffineSeparatedAndCond(
          (fAffine): Sequential(
            (0): Conv2d(
              326, 64, kernel_size=[3, 3], stride=[1, 1], padding=[1, 1], bias=False
              (actnorm): ActNorm2d()
            )
            (1): ReLU()
            (2): Conv2d(
              64, 64, kernel_size=[1, 1], stride=[1, 1], padding=[0, 0], bias=False
              (actnorm): ActNorm2d()
            )
            (3): ReLU()
            (4): Conv2dZeros(64, 12, kernel_size=[3, 3], stride=[1, 1], padding=[1, 1])
          )
          (fFeatures): Sequential(
            (0): Conv2d(
              320, 64, kernel_size=[3, 3], stride=[1, 1], padding=[1, 1], bias=False
              (actnorm): ActNorm2d()
            )
            (1): ReLU()
            (2): Conv2d(
              64, 64, kernel_size=[1, 1], stride=[1, 1], padding=[0, 0], bias=False
              (actnorm): ActNorm2d()
            )
            (3): ReLU()
            (4): Conv2dZeros(64, 24, kernel_size=[3, 3], stride=[1, 1], padding=[1, 1])
          )
        )
      )
      (17): FlowStep(
        (actnorm): ActNorm2d()
        (invconv): InvertibleConv1x1()
        (affine): CondAffineSeparatedAndCond(
          (fAffine): Sequential(
            (0): Conv2d(
              326, 64, kernel_size=[3, 3], stride=[1, 1], padding=[1, 1], bias=False
              (actnorm): ActNorm2d()
            )
            (1): ReLU()
            (2): Conv2d(
              64, 64, kernel_size=[1, 1], stride=[1, 1], padding=[0, 0], bias=False
              (actnorm): ActNorm2d()
            )
            (3): ReLU()
            (4): Conv2dZeros(64, 12, kernel_size=[3, 3], stride=[1, 1], padding=[1, 1])
          )
          (fFeatures): Sequential(
            (0): Conv2d(
              320, 64, kernel_size=[3, 3], stride=[1, 1], padding=[1, 1], bias=False
              (actnorm): ActNorm2d()
            )
            (1): ReLU()
            (2): Conv2d(
              64, 64, kernel_size=[1, 1], stride=[1, 1], padding=[0, 0], bias=False
              (actnorm): ActNorm2d()
            )
            (3): ReLU()
            (4): Conv2dZeros(64, 24, kernel_size=[3, 3], stride=[1, 1], padding=[1, 1])
          )
        )
      )
      (18): FlowStep(
        (actnorm): ActNorm2d()
        (invconv): InvertibleConv1x1()
        (affine): CondAffineSeparatedAndCond(
          (fAffine): Sequential(
            (0): Conv2d(
              326, 64, kernel_size=[3, 3], stride=[1, 1], padding=[1, 1], bias=False
              (actnorm): ActNorm2d()
            )
            (1): ReLU()
            (2): Conv2d(
              64, 64, kernel_size=[1, 1], stride=[1, 1], padding=[0, 0], bias=False
              (actnorm): ActNorm2d()
            )
            (3): ReLU()
            (4): Conv2dZeros(64, 12, kernel_size=[3, 3], stride=[1, 1], padding=[1, 1])
          )
          (fFeatures): Sequential(
            (0): Conv2d(
              320, 64, kernel_size=[3, 3], stride=[1, 1], padding=[1, 1], bias=False
              (actnorm): ActNorm2d()
            )
            (1): ReLU()
            (2): Conv2d(
              64, 64, kernel_size=[1, 1], stride=[1, 1], padding=[0, 0], bias=False
              (actnorm): ActNorm2d()
            )
            (3): ReLU()
            (4): Conv2dZeros(64, 24, kernel_size=[3, 3], stride=[1, 1], padding=[1, 1])
          )
        )
      )
      (19): Split2d(
        (conv): Conv2dZeros(6, 12, kernel_size=[3, 3], stride=[1, 1], padding=[1, 1])
      )
      (20): SqueezeLayer()
      (21): FlowStep(
        (actnorm): ActNorm2d()
        (invconv): InvertibleConv1x1()
      )
      (22): FlowStep(
        (actnorm): ActNorm2d()
        (invconv): InvertibleConv1x1()
      )
      (23): FlowStep(
        (actnorm): ActNorm2d()
        (invconv): InvertibleConv1x1()
        (affine): CondAffineSeparatedAndCond(
          (fAffine): Sequential(
            (0): Conv2d(
              332, 64, kernel_size=[3, 3], stride=[1, 1], padding=[1, 1], bias=False
              (actnorm): ActNorm2d()
            )
            (1): ReLU()
            (2): Conv2d(
              64, 64, kernel_size=[1, 1], stride=[1, 1], padding=[0, 0], bias=False
              (actnorm): ActNorm2d()
            )
            (3): ReLU()
            (4): Conv2dZeros(64, 24, kernel_size=[3, 3], stride=[1, 1], padding=[1, 1])
          )
          (fFeatures): Sequential(
            (0): Conv2d(
              320, 64, kernel_size=[3, 3], stride=[1, 1], padding=[1, 1], bias=False
              (actnorm): ActNorm2d()
            )
            (1): ReLU()
            (2): Conv2d(
              64, 64, kernel_size=[1, 1], stride=[1, 1], padding=[0, 0], bias=False
              (actnorm): ActNorm2d()
            )
            (3): ReLU()
            (4): Conv2dZeros(64, 48, kernel_size=[3, 3], stride=[1, 1], padding=[1, 1])
          )
        )
      )
      (24): FlowStep(
        (actnorm): ActNorm2d()
        (invconv): InvertibleConv1x1()
        (affine): CondAffineSeparatedAndCond(
          (fAffine): Sequential(
            (0): Conv2d(
              332, 64, kernel_size=[3, 3], stride=[1, 1], padding=[1, 1], bias=False
              (actnorm): ActNorm2d()
            )
            (1): ReLU()
            (2): Conv2d(
              64, 64, kernel_size=[1, 1], stride=[1, 1], padding=[0, 0], bias=False
              (actnorm): ActNorm2d()
            )
            (3): ReLU()
            (4): Conv2dZeros(64, 24, kernel_size=[3, 3], stride=[1, 1], padding=[1, 1])
          )
          (fFeatures): Sequential(
            (0): Conv2d(
              320, 64, kernel_size=[3, 3], stride=[1, 1], padding=[1, 1], bias=False
              (actnorm): ActNorm2d()
            )
            (1): ReLU()
            (2): Conv2d(
              64, 64, kernel_size=[1, 1], stride=[1, 1], padding=[0, 0], bias=False
              (actnorm): ActNorm2d()
            )
            (3): ReLU()
            (4): Conv2dZeros(64, 48, kernel_size=[3, 3], stride=[1, 1], padding=[1, 1])
          )
        )
      )
      (25): FlowStep(
        (actnorm): ActNorm2d()
        (invconv): InvertibleConv1x1()
        (affine): CondAffineSeparatedAndCond(
          (fAffine): Sequential(
            (0): Conv2d(
              332, 64, kernel_size=[3, 3], stride=[1, 1], padding=[1, 1], bias=False
              (actnorm): ActNorm2d()
            )
            (1): ReLU()
            (2): Conv2d(
              64, 64, kernel_size=[1, 1], stride=[1, 1], padding=[0, 0], bias=False
              (actnorm): ActNorm2d()
            )
            (3): ReLU()
            (4): Conv2dZeros(64, 24, kernel_size=[3, 3], stride=[1, 1], padding=[1, 1])
          )
          (fFeatures): Sequential(
            (0): Conv2d(
              320, 64, kernel_size=[3, 3], stride=[1, 1], padding=[1, 1], bias=False
              (actnorm): ActNorm2d()
            )
            (1): ReLU()
            (2): Conv2d(
              64, 64, kernel_size=[1, 1], stride=[1, 1], padding=[0, 0], bias=False
              (actnorm): ActNorm2d()
            )
            (3): ReLU()
            (4): Conv2dZeros(64, 48, kernel_size=[3, 3], stride=[1, 1], padding=[1, 1])
          )
        )
      )
      (26): FlowStep(
        (actnorm): ActNorm2d()
        (invconv): InvertibleConv1x1()
        (affine): CondAffineSeparatedAndCond(
          (fAffine): Sequential(
            (0): Conv2d(
              332, 64, kernel_size=[3, 3], stride=[1, 1], padding=[1, 1], bias=False
              (actnorm): ActNorm2d()
            )
            (1): ReLU()
            (2): Conv2d(
              64, 64, kernel_size=[1, 1], stride=[1, 1], padding=[0, 0], bias=False
              (actnorm): ActNorm2d()
            )
            (3): ReLU()
            (4): Conv2dZeros(64, 24, kernel_size=[3, 3], stride=[1, 1], padding=[1, 1])
          )
          (fFeatures): Sequential(
            (0): Conv2d(
              320, 64, kernel_size=[3, 3], stride=[1, 1], padding=[1, 1], bias=False
              (actnorm): ActNorm2d()
            )
            (1): ReLU()
            (2): Conv2d(
              64, 64, kernel_size=[1, 1], stride=[1, 1], padding=[0, 0], bias=False
              (actnorm): ActNorm2d()
            )
            (3): ReLU()
            (4): Conv2dZeros(64, 48, kernel_size=[3, 3], stride=[1, 1], padding=[1, 1])
          )
        )
      )
      (27): FlowStep(
        (actnorm): ActNorm2d()
        (invconv): InvertibleConv1x1()
        (affine): CondAffineSeparatedAndCond(
          (fAffine): Sequential(
            (0): Conv2d(
              332, 64, kernel_size=[3, 3], stride=[1, 1], padding=[1, 1], bias=False
              (actnorm): ActNorm2d()
            )
            (1): ReLU()
            (2): Conv2d(
              64, 64, kernel_size=[1, 1], stride=[1, 1], padding=[0, 0], bias=False
              (actnorm): ActNorm2d()
            )
            (3): ReLU()
            (4): Conv2dZeros(64, 24, kernel_size=[3, 3], stride=[1, 1], padding=[1, 1])
          )
          (fFeatures): Sequential(
            (0): Conv2d(
              320, 64, kernel_size=[3, 3], stride=[1, 1], padding=[1, 1], bias=False
              (actnorm): ActNorm2d()
            )
            (1): ReLU()
            (2): Conv2d(
              64, 64, kernel_size=[1, 1], stride=[1, 1], padding=[0, 0], bias=False
              (actnorm): ActNorm2d()
            )
            (3): ReLU()
            (4): Conv2dZeros(64, 48, kernel_size=[3, 3], stride=[1, 1], padding=[1, 1])
          )
        )
      )
      (28): FlowStep(
        (actnorm): ActNorm2d()
        (invconv): InvertibleConv1x1()
        (affine): CondAffineSeparatedAndCond(
          (fAffine): Sequential(
            (0): Conv2d(
              332, 64, kernel_size=[3, 3], stride=[1, 1], padding=[1, 1], bias=False
              (actnorm): ActNorm2d()
            )
            (1): ReLU()
            (2): Conv2d(
              64, 64, kernel_size=[1, 1], stride=[1, 1], padding=[0, 0], bias=False
              (actnorm): ActNorm2d()
            )
            (3): ReLU()
            (4): Conv2dZeros(64, 24, kernel_size=[3, 3], stride=[1, 1], padding=[1, 1])
          )
          (fFeatures): Sequential(
            (0): Conv2d(
              320, 64, kernel_size=[3, 3], stride=[1, 1], padding=[1, 1], bias=False
              (actnorm): ActNorm2d()
            )
            (1): ReLU()
            (2): Conv2d(
              64, 64, kernel_size=[1, 1], stride=[1, 1], padding=[0, 0], bias=False
              (actnorm): ActNorm2d()
            )
            (3): ReLU()
            (4): Conv2dZeros(64, 48, kernel_size=[3, 3], stride=[1, 1], padding=[1, 1])
          )
        )
      )
      (29): FlowStep(
        (actnorm): ActNorm2d()
        (invconv): InvertibleConv1x1()
        (affine): CondAffineSeparatedAndCond(
          (fAffine): Sequential(
            (0): Conv2d(
              332, 64, kernel_size=[3, 3], stride=[1, 1], padding=[1, 1], bias=False
              (actnorm): ActNorm2d()
            )
            (1): ReLU()
            (2): Conv2d(
              64, 64, kernel_size=[1, 1], stride=[1, 1], padding=[0, 0], bias=False
              (actnorm): ActNorm2d()
            )
            (3): ReLU()
            (4): Conv2dZeros(64, 24, kernel_size=[3, 3], stride=[1, 1], padding=[1, 1])
          )
          (fFeatures): Sequential(
            (0): Conv2d(
              320, 64, kernel_size=[3, 3], stride=[1, 1], padding=[1, 1], bias=False
              (actnorm): ActNorm2d()
            )
            (1): ReLU()
            (2): Conv2d(
              64, 64, kernel_size=[1, 1], stride=[1, 1], padding=[0, 0], bias=False
              (actnorm): ActNorm2d()
            )
            (3): ReLU()
            (4): Conv2dZeros(64, 48, kernel_size=[3, 3], stride=[1, 1], padding=[1, 1])
          )
        )
      )
      (30): FlowStep(
        (actnorm): ActNorm2d()
        (invconv): InvertibleConv1x1()
        (affine): CondAffineSeparatedAndCond(
          (fAffine): Sequential(
            (0): Conv2d(
              332, 64, kernel_size=[3, 3], stride=[1, 1], padding=[1, 1], bias=False
              (actnorm): ActNorm2d()
            )
            (1): ReLU()
            (2): Conv2d(
              64, 64, kernel_size=[1, 1], stride=[1, 1], padding=[0, 0], bias=False
              (actnorm): ActNorm2d()
            )
            (3): ReLU()
            (4): Conv2dZeros(64, 24, kernel_size=[3, 3], stride=[1, 1], padding=[1, 1])
          )
          (fFeatures): Sequential(
            (0): Conv2d(
              320, 64, kernel_size=[3, 3], stride=[1, 1], padding=[1, 1], bias=False
              (actnorm): ActNorm2d()
            )
            (1): ReLU()
            (2): Conv2d(
              64, 64, kernel_size=[1, 1], stride=[1, 1], padding=[0, 0], bias=False
              (actnorm): ActNorm2d()
            )
            (3): ReLU()
            (4): Conv2dZeros(64, 48, kernel_size=[3, 3], stride=[1, 1], padding=[1, 1])
          )
        )
      )
      (31): FlowStep(
        (actnorm): ActNorm2d()
        (invconv): InvertibleConv1x1()
        (affine): CondAffineSeparatedAndCond(
          (fAffine): Sequential(
            (0): Conv2d(
              332, 64, kernel_size=[3, 3], stride=[1, 1], padding=[1, 1], bias=False
              (actnorm): ActNorm2d()
            )
            (1): ReLU()
            (2): Conv2d(
              64, 64, kernel_size=[1, 1], stride=[1, 1], padding=[0, 0], bias=False
              (actnorm): ActNorm2d()
            )
            (3): ReLU()
            (4): Conv2dZeros(64, 24, kernel_size=[3, 3], stride=[1, 1], padding=[1, 1])
          )
          (fFeatures): Sequential(
            (0): Conv2d(
              320, 64, kernel_size=[3, 3], stride=[1, 1], padding=[1, 1], bias=False
              (actnorm): ActNorm2d()
            )
            (1): ReLU()
            (2): Conv2d(
              64, 64, kernel_size=[1, 1], stride=[1, 1], padding=[0, 0], bias=False
              (actnorm): ActNorm2d()
            )
            (3): ReLU()
            (4): Conv2dZeros(64, 48, kernel_size=[3, 3], stride=[1, 1], padding=[1, 1])
          )
        )
      )
      (32): FlowStep(
        (actnorm): ActNorm2d()
        (invconv): InvertibleConv1x1()
        (affine): CondAffineSeparatedAndCond(
          (fAffine): Sequential(
            (0): Conv2d(
              332, 64, kernel_size=[3, 3], stride=[1, 1], padding=[1, 1], bias=False
              (actnorm): ActNorm2d()
            )
            (1): ReLU()
            (2): Conv2d(
              64, 64, kernel_size=[1, 1], stride=[1, 1], padding=[0, 0], bias=False
              (actnorm): ActNorm2d()
            )
            (3): ReLU()
            (4): Conv2dZeros(64, 24, kernel_size=[3, 3], stride=[1, 1], padding=[1, 1])
          )
          (fFeatures): Sequential(
            (0): Conv2d(
              320, 64, kernel_size=[3, 3], stride=[1, 1], padding=[1, 1], bias=False
              (actnorm): ActNorm2d()
            )
            (1): ReLU()
            (2): Conv2d(
              64, 64, kernel_size=[1, 1], stride=[1, 1], padding=[0, 0], bias=False
              (actnorm): ActNorm2d()
            )
            (3): ReLU()
            (4): Conv2dZeros(64, 48, kernel_size=[3, 3], stride=[1, 1], padding=[1, 1])
          )
        )
      )
      (33): FlowStep(
        (actnorm): ActNorm2d()
        (invconv): InvertibleConv1x1()
        (affine): CondAffineSeparatedAndCond(
          (fAffine): Sequential(
            (0): Conv2d(
              332, 64, kernel_size=[3, 3], stride=[1, 1], padding=[1, 1], bias=False
              (actnorm): ActNorm2d()
            )
            (1): ReLU()
            (2): Conv2d(
              64, 64, kernel_size=[1, 1], stride=[1, 1], padding=[0, 0], bias=False
              (actnorm): ActNorm2d()
            )
            (3): ReLU()
            (4): Conv2dZeros(64, 24, kernel_size=[3, 3], stride=[1, 1], padding=[1, 1])
          )
          (fFeatures): Sequential(
            (0): Conv2d(
              320, 64, kernel_size=[3, 3], stride=[1, 1], padding=[1, 1], bias=False
              (actnorm): ActNorm2d()
            )
            (1): ReLU()
            (2): Conv2d(
              64, 64, kernel_size=[1, 1], stride=[1, 1], padding=[0, 0], bias=False
              (actnorm): ActNorm2d()
            )
            (3): ReLU()
            (4): Conv2dZeros(64, 48, kernel_size=[3, 3], stride=[1, 1], padding=[1, 1])
          )
        )
      )
      (34): FlowStep(
        (actnorm): ActNorm2d()
        (invconv): InvertibleConv1x1()
        (affine): CondAffineSeparatedAndCond(
          (fAffine): Sequential(
            (0): Conv2d(
              332, 64, kernel_size=[3, 3], stride=[1, 1], padding=[1, 1], bias=False
              (actnorm): ActNorm2d()
            )
            (1): ReLU()
            (2): Conv2d(
              64, 64, kernel_size=[1, 1], stride=[1, 1], padding=[0, 0], bias=False
              (actnorm): ActNorm2d()
            )
            (3): ReLU()
            (4): Conv2dZeros(64, 24, kernel_size=[3, 3], stride=[1, 1], padding=[1, 1])
          )
          (fFeatures): Sequential(
            (0): Conv2d(
              320, 64, kernel_size=[3, 3], stride=[1, 1], padding=[1, 1], bias=False
              (actnorm): ActNorm2d()
            )
            (1): ReLU()
            (2): Conv2d(
              64, 64, kernel_size=[1, 1], stride=[1, 1], padding=[0, 0], bias=False
              (actnorm): ActNorm2d()
            )
            (3): ReLU()
            (4): Conv2dZeros(64, 48, kernel_size=[3, 3], stride=[1, 1], padding=[1, 1])
          )
        )
      )
      (35): FlowStep(
        (actnorm): ActNorm2d()
        (invconv): InvertibleConv1x1()
        (affine): CondAffineSeparatedAndCond(
          (fAffine): Sequential(
            (0): Conv2d(
              332, 64, kernel_size=[3, 3], stride=[1, 1], padding=[1, 1], bias=False
              (actnorm): ActNorm2d()
            )
            (1): ReLU()
            (2): Conv2d(
              64, 64, kernel_size=[1, 1], stride=[1, 1], padding=[0, 0], bias=False
              (actnorm): ActNorm2d()
            )
            (3): ReLU()
            (4): Conv2dZeros(64, 24, kernel_size=[3, 3], stride=[1, 1], padding=[1, 1])
          )
          (fFeatures): Sequential(
            (0): Conv2d(
              320, 64, kernel_size=[3, 3], stride=[1, 1], padding=[1, 1], bias=False
              (actnorm): ActNorm2d()
            )
            (1): ReLU()
            (2): Conv2d(
              64, 64, kernel_size=[1, 1], stride=[1, 1], padding=[0, 0], bias=False
              (actnorm): ActNorm2d()
            )
            (3): ReLU()
            (4): Conv2dZeros(64, 48, kernel_size=[3, 3], stride=[1, 1], padding=[1, 1])
          )
        )
      )
      (36): FlowStep(
        (actnorm): ActNorm2d()
        (invconv): InvertibleConv1x1()
        (affine): CondAffineSeparatedAndCond(
          (fAffine): Sequential(
            (0): Conv2d(
              332, 64, kernel_size=[3, 3], stride=[1, 1], padding=[1, 1], bias=False
              (actnorm): ActNorm2d()
            )
            (1): ReLU()
            (2): Conv2d(
              64, 64, kernel_size=[1, 1], stride=[1, 1], padding=[0, 0], bias=False
              (actnorm): ActNorm2d()
            )
            (3): ReLU()
            (4): Conv2dZeros(64, 24, kernel_size=[3, 3], stride=[1, 1], padding=[1, 1])
          )
          (fFeatures): Sequential(
            (0): Conv2d(
              320, 64, kernel_size=[3, 3], stride=[1, 1], padding=[1, 1], bias=False
              (actnorm): ActNorm2d()
            )
            (1): ReLU()
            (2): Conv2d(
              64, 64, kernel_size=[1, 1], stride=[1, 1], padding=[0, 0], bias=False
              (actnorm): ActNorm2d()
            )
            (3): ReLU()
            (4): Conv2dZeros(64, 48, kernel_size=[3, 3], stride=[1, 1], padding=[1, 1])
          )
        )
      )
      (37): FlowStep(
        (actnorm): ActNorm2d()
        (invconv): InvertibleConv1x1()
        (affine): CondAffineSeparatedAndCond(
          (fAffine): Sequential(
            (0): Conv2d(
              332, 64, kernel_size=[3, 3], stride=[1, 1], padding=[1, 1], bias=False
              (actnorm): ActNorm2d()
            )
            (1): ReLU()
            (2): Conv2d(
              64, 64, kernel_size=[1, 1], stride=[1, 1], padding=[0, 0], bias=False
              (actnorm): ActNorm2d()
            )
            (3): ReLU()
            (4): Conv2dZeros(64, 24, kernel_size=[3, 3], stride=[1, 1], padding=[1, 1])
          )
          (fFeatures): Sequential(
            (0): Conv2d(
              320, 64, kernel_size=[3, 3], stride=[1, 1], padding=[1, 1], bias=False
              (actnorm): ActNorm2d()
            )
            (1): ReLU()
            (2): Conv2d(
              64, 64, kernel_size=[1, 1], stride=[1, 1], padding=[0, 0], bias=False
              (actnorm): ActNorm2d()
            )
            (3): ReLU()
            (4): Conv2dZeros(64, 48, kernel_size=[3, 3], stride=[1, 1], padding=[1, 1])
          )
        )
      )
      (38): FlowStep(
        (actnorm): ActNorm2d()
        (invconv): InvertibleConv1x1()
        (affine): CondAffineSeparatedAndCond(
          (fAffine): Sequential(
            (0): Conv2d(
              332, 64, kernel_size=[3, 3], stride=[1, 1], padding=[1, 1], bias=False
              (actnorm): ActNorm2d()
            )
            (1): ReLU()
            (2): Conv2d(
              64, 64, kernel_size=[1, 1], stride=[1, 1], padding=[0, 0], bias=False
              (actnorm): ActNorm2d()
            )
            (3): ReLU()
            (4): Conv2dZeros(64, 24, kernel_size=[3, 3], stride=[1, 1], padding=[1, 1])
          )
          (fFeatures): Sequential(
            (0): Conv2d(
              320, 64, kernel_size=[3, 3], stride=[1, 1], padding=[1, 1], bias=False
              (actnorm): ActNorm2d()
            )
            (1): ReLU()
            (2): Conv2d(
              64, 64, kernel_size=[1, 1], stride=[1, 1], padding=[0, 0], bias=False
              (actnorm): ActNorm2d()
            )
            (3): ReLU()
            (4): Conv2dZeros(64, 48, kernel_size=[3, 3], stride=[1, 1], padding=[1, 1])
          )
        )
      )
      (39): SqueezeLayer()
      (40): FlowStep(
        (actnorm): ActNorm2d()
        (invconv): InvertibleConv1x1()
      )
      (41): FlowStep(
        (actnorm): ActNorm2d()
        (invconv): InvertibleConv1x1()
      )
      (42): FlowStep(
        (actnorm): ActNorm2d()
        (invconv): InvertibleConv1x1()
        (affine): CondAffineSeparatedAndCond(
          (fAffine): Sequential(
            (0): Conv2d(
              368, 64, kernel_size=[3, 3], stride=[1, 1], padding=[1, 1], bias=False
              (actnorm): ActNorm2d()
            )
            (1): ReLU()
            (2): Conv2d(
              64, 64, kernel_size=[1, 1], stride=[1, 1], padding=[0, 0], bias=False
              (actnorm): ActNorm2d()
            )
            (3): ReLU()
            (4): Conv2dZeros(64, 96, kernel_size=[3, 3], stride=[1, 1], padding=[1, 1])
          )
          (fFeatures): Sequential(
            (0): Conv2d(
              320, 64, kernel_size=[3, 3], stride=[1, 1], padding=[1, 1], bias=False
              (actnorm): ActNorm2d()
            )
            (1): ReLU()
            (2): Conv2d(
              64, 64, kernel_size=[1, 1], stride=[1, 1], padding=[0, 0], bias=False
              (actnorm): ActNorm2d()
            )
            (3): ReLU()
            (4): Conv2dZeros(64, 192, kernel_size=[3, 3], stride=[1, 1], padding=[1, 1])
          )
        )
      )
      (43): FlowStep(
        (actnorm): ActNorm2d()
        (invconv): InvertibleConv1x1()
        (affine): CondAffineSeparatedAndCond(
          (fAffine): Sequential(
            (0): Conv2d(
              368, 64, kernel_size=[3, 3], stride=[1, 1], padding=[1, 1], bias=False
              (actnorm): ActNorm2d()
            )
            (1): ReLU()
            (2): Conv2d(
              64, 64, kernel_size=[1, 1], stride=[1, 1], padding=[0, 0], bias=False
              (actnorm): ActNorm2d()
            )
            (3): ReLU()
            (4): Conv2dZeros(64, 96, kernel_size=[3, 3], stride=[1, 1], padding=[1, 1])
          )
          (fFeatures): Sequential(
            (0): Conv2d(
              320, 64, kernel_size=[3, 3], stride=[1, 1], padding=[1, 1], bias=False
              (actnorm): ActNorm2d()
            )
            (1): ReLU()
            (2): Conv2d(
              64, 64, kernel_size=[1, 1], stride=[1, 1], padding=[0, 0], bias=False
              (actnorm): ActNorm2d()
            )
            (3): ReLU()
            (4): Conv2dZeros(64, 192, kernel_size=[3, 3], stride=[1, 1], padding=[1, 1])
          )
        )
      )
      (44): FlowStep(
        (actnorm): ActNorm2d()
        (invconv): InvertibleConv1x1()
        (affine): CondAffineSeparatedAndCond(
          (fAffine): Sequential(
            (0): Conv2d(
              368, 64, kernel_size=[3, 3], stride=[1, 1], padding=[1, 1], bias=False
              (actnorm): ActNorm2d()
            )
            (1): ReLU()
            (2): Conv2d(
              64, 64, kernel_size=[1, 1], stride=[1, 1], padding=[0, 0], bias=False
              (actnorm): ActNorm2d()
            )
            (3): ReLU()
            (4): Conv2dZeros(64, 96, kernel_size=[3, 3], stride=[1, 1], padding=[1, 1])
          )
          (fFeatures): Sequential(
            (0): Conv2d(
              320, 64, kernel_size=[3, 3], stride=[1, 1], padding=[1, 1], bias=False
              (actnorm): ActNorm2d()
            )
            (1): ReLU()
            (2): Conv2d(
              64, 64, kernel_size=[1, 1], stride=[1, 1], padding=[0, 0], bias=False
              (actnorm): ActNorm2d()
            )
            (3): ReLU()
            (4): Conv2dZeros(64, 192, kernel_size=[3, 3], stride=[1, 1], padding=[1, 1])
          )
        )
      )
      (45): FlowStep(
        (actnorm): ActNorm2d()
        (invconv): InvertibleConv1x1()
        (affine): CondAffineSeparatedAndCond(
          (fAffine): Sequential(
            (0): Conv2d(
              368, 64, kernel_size=[3, 3], stride=[1, 1], padding=[1, 1], bias=False
              (actnorm): ActNorm2d()
            )
            (1): ReLU()
            (2): Conv2d(
              64, 64, kernel_size=[1, 1], stride=[1, 1], padding=[0, 0], bias=False
              (actnorm): ActNorm2d()
            )
            (3): ReLU()
            (4): Conv2dZeros(64, 96, kernel_size=[3, 3], stride=[1, 1], padding=[1, 1])
          )
          (fFeatures): Sequential(
            (0): Conv2d(
              320, 64, kernel_size=[3, 3], stride=[1, 1], padding=[1, 1], bias=False
              (actnorm): ActNorm2d()
            )
            (1): ReLU()
            (2): Conv2d(
              64, 64, kernel_size=[1, 1], stride=[1, 1], padding=[0, 0], bias=False
              (actnorm): ActNorm2d()
            )
            (3): ReLU()
            (4): Conv2dZeros(64, 192, kernel_size=[3, 3], stride=[1, 1], padding=[1, 1])
          )
        )
      )
      (46): FlowStep(
        (actnorm): ActNorm2d()
        (invconv): InvertibleConv1x1()
        (affine): CondAffineSeparatedAndCond(
          (fAffine): Sequential(
            (0): Conv2d(
              368, 64, kernel_size=[3, 3], stride=[1, 1], padding=[1, 1], bias=False
              (actnorm): ActNorm2d()
            )
            (1): ReLU()
            (2): Conv2d(
              64, 64, kernel_size=[1, 1], stride=[1, 1], padding=[0, 0], bias=False
              (actnorm): ActNorm2d()
            )
            (3): ReLU()
            (4): Conv2dZeros(64, 96, kernel_size=[3, 3], stride=[1, 1], padding=[1, 1])
          )
          (fFeatures): Sequential(
            (0): Conv2d(
              320, 64, kernel_size=[3, 3], stride=[1, 1], padding=[1, 1], bias=False
              (actnorm): ActNorm2d()
            )
            (1): ReLU()
            (2): Conv2d(
              64, 64, kernel_size=[1, 1], stride=[1, 1], padding=[0, 0], bias=False
              (actnorm): ActNorm2d()
            )
            (3): ReLU()
            (4): Conv2dZeros(64, 192, kernel_size=[3, 3], stride=[1, 1], padding=[1, 1])
          )
        )
      )
      (47): FlowStep(
        (actnorm): ActNorm2d()
        (invconv): InvertibleConv1x1()
        (affine): CondAffineSeparatedAndCond(
          (fAffine): Sequential(
            (0): Conv2d(
              368, 64, kernel_size=[3, 3], stride=[1, 1], padding=[1, 1], bias=False
              (actnorm): ActNorm2d()
            )
            (1): ReLU()
            (2): Conv2d(
              64, 64, kernel_size=[1, 1], stride=[1, 1], padding=[0, 0], bias=False
              (actnorm): ActNorm2d()
            )
            (3): ReLU()
            (4): Conv2dZeros(64, 96, kernel_size=[3, 3], stride=[1, 1], padding=[1, 1])
          )
          (fFeatures): Sequential(
            (0): Conv2d(
              320, 64, kernel_size=[3, 3], stride=[1, 1], padding=[1, 1], bias=False
              (actnorm): ActNorm2d()
            )
            (1): ReLU()
            (2): Conv2d(
              64, 64, kernel_size=[1, 1], stride=[1, 1], padding=[0, 0], bias=False
              (actnorm): ActNorm2d()
            )
            (3): ReLU()
            (4): Conv2dZeros(64, 192, kernel_size=[3, 3], stride=[1, 1], padding=[1, 1])
          )
        )
      )
      (48): FlowStep(
        (actnorm): ActNorm2d()
        (invconv): InvertibleConv1x1()
        (affine): CondAffineSeparatedAndCond(
          (fAffine): Sequential(
            (0): Conv2d(
              368, 64, kernel_size=[3, 3], stride=[1, 1], padding=[1, 1], bias=False
              (actnorm): ActNorm2d()
            )
            (1): ReLU()
            (2): Conv2d(
              64, 64, kernel_size=[1, 1], stride=[1, 1], padding=[0, 0], bias=False
              (actnorm): ActNorm2d()
            )
            (3): ReLU()
            (4): Conv2dZeros(64, 96, kernel_size=[3, 3], stride=[1, 1], padding=[1, 1])
          )
          (fFeatures): Sequential(
            (0): Conv2d(
              320, 64, kernel_size=[3, 3], stride=[1, 1], padding=[1, 1], bias=False
              (actnorm): ActNorm2d()
            )
            (1): ReLU()
            (2): Conv2d(
              64, 64, kernel_size=[1, 1], stride=[1, 1], padding=[0, 0], bias=False
              (actnorm): ActNorm2d()
            )
            (3): ReLU()
            (4): Conv2dZeros(64, 192, kernel_size=[3, 3], stride=[1, 1], padding=[1, 1])
          )
        )
      )
      (49): FlowStep(
        (actnorm): ActNorm2d()
        (invconv): InvertibleConv1x1()
        (affine): CondAffineSeparatedAndCond(
          (fAffine): Sequential(
            (0): Conv2d(
              368, 64, kernel_size=[3, 3], stride=[1, 1], padding=[1, 1], bias=False
              (actnorm): ActNorm2d()
            )
            (1): ReLU()
            (2): Conv2d(
              64, 64, kernel_size=[1, 1], stride=[1, 1], padding=[0, 0], bias=False
              (actnorm): ActNorm2d()
            )
            (3): ReLU()
            (4): Conv2dZeros(64, 96, kernel_size=[3, 3], stride=[1, 1], padding=[1, 1])
          )
          (fFeatures): Sequential(
            (0): Conv2d(
              320, 64, kernel_size=[3, 3], stride=[1, 1], padding=[1, 1], bias=False
              (actnorm): ActNorm2d()
            )
            (1): ReLU()
            (2): Conv2d(
              64, 64, kernel_size=[1, 1], stride=[1, 1], padding=[0, 0], bias=False
              (actnorm): ActNorm2d()
            )
            (3): ReLU()
            (4): Conv2dZeros(64, 192, kernel_size=[3, 3], stride=[1, 1], padding=[1, 1])
          )
        )
      )
      (50): FlowStep(
        (actnorm): ActNorm2d()
        (invconv): InvertibleConv1x1()
        (affine): CondAffineSeparatedAndCond(
          (fAffine): Sequential(
            (0): Conv2d(
              368, 64, kernel_size=[3, 3], stride=[1, 1], padding=[1, 1], bias=False
              (actnorm): ActNorm2d()
            )
            (1): ReLU()
            (2): Conv2d(
              64, 64, kernel_size=[1, 1], stride=[1, 1], padding=[0, 0], bias=False
              (actnorm): ActNorm2d()
            )
            (3): ReLU()
            (4): Conv2dZeros(64, 96, kernel_size=[3, 3], stride=[1, 1], padding=[1, 1])
          )
          (fFeatures): Sequential(
            (0): Conv2d(
              320, 64, kernel_size=[3, 3], stride=[1, 1], padding=[1, 1], bias=False
              (actnorm): ActNorm2d()
            )
            (1): ReLU()
            (2): Conv2d(
              64, 64, kernel_size=[1, 1], stride=[1, 1], padding=[0, 0], bias=False
              (actnorm): ActNorm2d()
            )
            (3): ReLU()
            (4): Conv2dZeros(64, 192, kernel_size=[3, 3], stride=[1, 1], padding=[1, 1])
          )
        )
      )
      (51): FlowStep(
        (actnorm): ActNorm2d()
        (invconv): InvertibleConv1x1()
        (affine): CondAffineSeparatedAndCond(
          (fAffine): Sequential(
            (0): Conv2d(
              368, 64, kernel_size=[3, 3], stride=[1, 1], padding=[1, 1], bias=False
              (actnorm): ActNorm2d()
            )
            (1): ReLU()
            (2): Conv2d(
              64, 64, kernel_size=[1, 1], stride=[1, 1], padding=[0, 0], bias=False
              (actnorm): ActNorm2d()
            )
            (3): ReLU()
            (4): Conv2dZeros(64, 96, kernel_size=[3, 3], stride=[1, 1], padding=[1, 1])
          )
          (fFeatures): Sequential(
            (0): Conv2d(
              320, 64, kernel_size=[3, 3], stride=[1, 1], padding=[1, 1], bias=False
              (actnorm): ActNorm2d()
            )
            (1): ReLU()
            (2): Conv2d(
              64, 64, kernel_size=[1, 1], stride=[1, 1], padding=[0, 0], bias=False
              (actnorm): ActNorm2d()
            )
            (3): ReLU()
            (4): Conv2dZeros(64, 192, kernel_size=[3, 3], stride=[1, 1], padding=[1, 1])
          )
        )
      )
      (52): FlowStep(
        (actnorm): ActNorm2d()
        (invconv): InvertibleConv1x1()
        (affine): CondAffineSeparatedAndCond(
          (fAffine): Sequential(
            (0): Conv2d(
              368, 64, kernel_size=[3, 3], stride=[1, 1], padding=[1, 1], bias=False
              (actnorm): ActNorm2d()
            )
            (1): ReLU()
            (2): Conv2d(
              64, 64, kernel_size=[1, 1], stride=[1, 1], padding=[0, 0], bias=False
              (actnorm): ActNorm2d()
            )
            (3): ReLU()
            (4): Conv2dZeros(64, 96, kernel_size=[3, 3], stride=[1, 1], padding=[1, 1])
          )
          (fFeatures): Sequential(
            (0): Conv2d(
              320, 64, kernel_size=[3, 3], stride=[1, 1], padding=[1, 1], bias=False
              (actnorm): ActNorm2d()
            )
            (1): ReLU()
            (2): Conv2d(
              64, 64, kernel_size=[1, 1], stride=[1, 1], padding=[0, 0], bias=False
              (actnorm): ActNorm2d()
            )
            (3): ReLU()
            (4): Conv2dZeros(64, 192, kernel_size=[3, 3], stride=[1, 1], padding=[1, 1])
          )
        )
      )
      (53): FlowStep(
        (actnorm): ActNorm2d()
        (invconv): InvertibleConv1x1()
        (affine): CondAffineSeparatedAndCond(
          (fAffine): Sequential(
            (0): Conv2d(
              368, 64, kernel_size=[3, 3], stride=[1, 1], padding=[1, 1], bias=False
              (actnorm): ActNorm2d()
            )
            (1): ReLU()
            (2): Conv2d(
              64, 64, kernel_size=[1, 1], stride=[1, 1], padding=[0, 0], bias=False
              (actnorm): ActNorm2d()
            )
            (3): ReLU()
            (4): Conv2dZeros(64, 96, kernel_size=[3, 3], stride=[1, 1], padding=[1, 1])
          )
          (fFeatures): Sequential(
            (0): Conv2d(
              320, 64, kernel_size=[3, 3], stride=[1, 1], padding=[1, 1], bias=False
              (actnorm): ActNorm2d()
            )
            (1): ReLU()
            (2): Conv2d(
              64, 64, kernel_size=[1, 1], stride=[1, 1], padding=[0, 0], bias=False
              (actnorm): ActNorm2d()
            )
            (3): ReLU()
            (4): Conv2dZeros(64, 192, kernel_size=[3, 3], stride=[1, 1], padding=[1, 1])
          )
        )
      )
      (54): FlowStep(
        (actnorm): ActNorm2d()
        (invconv): InvertibleConv1x1()
        (affine): CondAffineSeparatedAndCond(
          (fAffine): Sequential(
            (0): Conv2d(
              368, 64, kernel_size=[3, 3], stride=[1, 1], padding=[1, 1], bias=False
              (actnorm): ActNorm2d()
            )
            (1): ReLU()
            (2): Conv2d(
              64, 64, kernel_size=[1, 1], stride=[1, 1], padding=[0, 0], bias=False
              (actnorm): ActNorm2d()
            )
            (3): ReLU()
            (4): Conv2dZeros(64, 96, kernel_size=[3, 3], stride=[1, 1], padding=[1, 1])
          )
          (fFeatures): Sequential(
            (0): Conv2d(
              320, 64, kernel_size=[3, 3], stride=[1, 1], padding=[1, 1], bias=False
              (actnorm): ActNorm2d()
            )
            (1): ReLU()
            (2): Conv2d(
              64, 64, kernel_size=[1, 1], stride=[1, 1], padding=[0, 0], bias=False
              (actnorm): ActNorm2d()
            )
            (3): ReLU()
            (4): Conv2dZeros(64, 192, kernel_size=[3, 3], stride=[1, 1], padding=[1, 1])
          )
        )
      )
      (55): FlowStep(
        (actnorm): ActNorm2d()
        (invconv): InvertibleConv1x1()
        (affine): CondAffineSeparatedAndCond(
          (fAffine): Sequential(
            (0): Conv2d(
              368, 64, kernel_size=[3, 3], stride=[1, 1], padding=[1, 1], bias=False
              (actnorm): ActNorm2d()
            )
            (1): ReLU()
            (2): Conv2d(
              64, 64, kernel_size=[1, 1], stride=[1, 1], padding=[0, 0], bias=False
              (actnorm): ActNorm2d()
            )
            (3): ReLU()
            (4): Conv2dZeros(64, 96, kernel_size=[3, 3], stride=[1, 1], padding=[1, 1])
          )
          (fFeatures): Sequential(
            (0): Conv2d(
              320, 64, kernel_size=[3, 3], stride=[1, 1], padding=[1, 1], bias=False
              (actnorm): ActNorm2d()
            )
            (1): ReLU()
            (2): Conv2d(
              64, 64, kernel_size=[1, 1], stride=[1, 1], padding=[0, 0], bias=False
              (actnorm): ActNorm2d()
            )
            (3): ReLU()
            (4): Conv2dZeros(64, 192, kernel_size=[3, 3], stride=[1, 1], padding=[1, 1])
          )
        )
      )
      (56): FlowStep(
        (actnorm): ActNorm2d()
        (invconv): InvertibleConv1x1()
        (affine): CondAffineSeparatedAndCond(
          (fAffine): Sequential(
            (0): Conv2d(
              368, 64, kernel_size=[3, 3], stride=[1, 1], padding=[1, 1], bias=False
              (actnorm): ActNorm2d()
            )
            (1): ReLU()
            (2): Conv2d(
              64, 64, kernel_size=[1, 1], stride=[1, 1], padding=[0, 0], bias=False
              (actnorm): ActNorm2d()
            )
            (3): ReLU()
            (4): Conv2dZeros(64, 96, kernel_size=[3, 3], stride=[1, 1], padding=[1, 1])
          )
          (fFeatures): Sequential(
            (0): Conv2d(
              320, 64, kernel_size=[3, 3], stride=[1, 1], padding=[1, 1], bias=False
              (actnorm): ActNorm2d()
            )
            (1): ReLU()
            (2): Conv2d(
              64, 64, kernel_size=[1, 1], stride=[1, 1], padding=[0, 0], bias=False
              (actnorm): ActNorm2d()
            )
            (3): ReLU()
            (4): Conv2dZeros(64, 192, kernel_size=[3, 3], stride=[1, 1], padding=[1, 1])
          )
        )
      )
      (57): FlowStep(
        (actnorm): ActNorm2d()
        (invconv): InvertibleConv1x1()
        (affine): CondAffineSeparatedAndCond(
          (fAffine): Sequential(
            (0): Conv2d(
              368, 64, kernel_size=[3, 3], stride=[1, 1], padding=[1, 1], bias=False
              (actnorm): ActNorm2d()
            )
            (1): ReLU()
            (2): Conv2d(
              64, 64, kernel_size=[1, 1], stride=[1, 1], padding=[0, 0], bias=False
              (actnorm): ActNorm2d()
            )
            (3): ReLU()
            (4): Conv2dZeros(64, 96, kernel_size=[3, 3], stride=[1, 1], padding=[1, 1])
          )
          (fFeatures): Sequential(
            (0): Conv2d(
              320, 64, kernel_size=[3, 3], stride=[1, 1], padding=[1, 1], bias=False
              (actnorm): ActNorm2d()
            )
            (1): ReLU()
            (2): Conv2d(
              64, 64, kernel_size=[1, 1], stride=[1, 1], padding=[0, 0], bias=False
              (actnorm): ActNorm2d()
            )
            (3): ReLU()
            (4): Conv2dZeros(64, 192, kernel_size=[3, 3], stride=[1, 1], padding=[1, 1])
          )
        )
      )
    )
    (f): Sequential(
      (0): Conv2d(320, 96, kernel_size=[3, 3], stride=(1, 1), padding=(1, 1))
    )
  )
)
21-07-28 17:52:23.902 - WARNING: Params [module.RRDB.conv_first.weight] will not optimize.
21-07-28 17:52:23.903 - WARNING: Params [module.RRDB.conv_first.bias] will not optimize.
21-07-28 17:52:23.903 - WARNING: Params [module.RRDB.RRDB_trunk.0.RDB1.conv1.weight] will not optimize.
21-07-28 17:52:23.903 - WARNING: Params [module.RRDB.RRDB_trunk.0.RDB1.conv1.bias] will not optimize.
…
